implicitterrain_demo/2494_1141/geo_model.pth (torch, 797588 bytes, 9 tensors)

net.0.linear.weight f4 [256, 2]
00000000: d893 2b3e 8985 d3be ef08 39be 0549 a6be
00000010: 2dbd 403e 41c2 c13e 7847 19be 29ca 9bbe
00000020: 7360 053d 6be5 c53e 86c0 793e 0255 e9be
00000030: 23c0 d83b 4fe2 1bbe 26d8 f7be ebfb 26be
00000040: 278e e23e 8cfe 553e 44f8 9dbd b908 e73e
00000050: 14cf 883e 4aa6 99be d605 d9be 19f7 afbe
00000060: 3c7d 74bd dd61 a8be 0bfc 8f3d 8f6a d8be
00000070: 6871 e13e 5f78 5cbe a8eb 973e 836b a73e
00000080: ef07 fc3e 5684 0cbe 7c11 7dbd 0075 983e
00000090: 5c8f e93d c3e3 c83e b94e b3bd 877f 7cbe
000000a0: c84b f43e 2be1 593d 0063 a43d 8bad 77bd
000000b0: e052 d2be 7430 2cbe 06a5 f33e f6e6 503e
000000c0: aa97 2d3e ffc1 e7bc c7a8 ecbe cf9b 8abe
000000d0: 17ea 173e 602f 72be 89f9 86bd 7b1e 833e
000000e0: f49b c3be 2ad9 ea3e bcf9 b2bc cc9b fdbe
000000f0: 50c2 de3e 07b6 febe 4872 033e c9c7 2a3e
00000100: 3a6d ebbe a6d7 2dbe 3f64 993e f74f d73e
00000110: 2b78 13bd 485f 41be 0137 47bd 9087 e93e
00000120: e980 60be a23f 2dbe 0f63 95be 04f5 7ebe
00000130: 7309 023d 4f01 f63d efcc f53d be0b f13e
00000140: 11d2 e03e 73f1 97be 0b6e 33be 7a4f f4bd
00000150: 79b7 ebbe 6a86 dabe 87dc f23d bfe1 dd3d
00000160: 1890 b9bd 4dfa 7b3e 90e5 eebe 3b65 d93e
00000170: b5a9 21bc 762c 83be da33 cfbe bc60 1c3e
00000180: 0e92 b23e b5ff 833e bc4d 10bc 26dd 383e
00000190: 00c7 06be b4ee 21bd e60a 3a3e cf02 0ebd
000001a0: 1bb7 f7be 9ea6 e6be ed89 b83d cbc3 a2be
000001b0: b831 90be dd16 a6be e88c 50be a603 d23e
000001c0: 79bd ba3d 117e 00bf defc b03e 0d08 c53d
000001d0: ed59 8a3e dfbd 1abe 78cc 603c 8c30 ae3e
000001e0: e8aa b5be 349c a93e f73a cc3e c8ba e1be
000001f0: 3ffa 813e 541e d53e 1500 e33d cfa1 ad3c
00000200: 1a49 8dbe c0d9 d23e 776e b5be d249 ad3e
00000210: e04e d8bc 68b1 273e f6c5 3dbd 3d21 d9be
00000220: 7eae 5e3e 038f 7f3d e383 5b3e b7d1 953c
00000230: 1974 f1be 6247 e7bd fcf7 f13e f9d8 0d3d
00000240: 89a8 d1bd 4d1d d8bc 97a5 dd3e f172 63be
00000250: 7d7d 5bbd 50e4 8dbe 158c e9bd 2eb4 233d
00000260: 63a0 e43c 8cb1 1b3d 6f75 f93e 407c 833e
00000270: 05f1 f6bc bdfe 813e 8ee0 723e 1328 c73e
00000280: cfbc b63e 25d4 35be 6130 c43e 3a7d f13e
00000290: a92d a43e 767f 85bd 3629 97be 5a99 963e
000002a0: 9def 973e 70c4 8bbe 5db9 5a3e f088 973d
000002b0: 1658 cbbe a08a 99bd 69fb b9bd 4895 7ebd
000002c0: fcb5 b8be 5207 d73c d95b d4be d23a e93d
000002d0: ce09 933e e179 3cbe 565a a33e 6ea2 e33e
000002e0: aae7 b8be 003d 84be 2542 003f 7d2c 51be
000002f0: 7243 6bbe 64f1 26bd f2b2 873e af63 883e
00000300: 0715 853e f0f2 923e ab3d cbbe a8c3 5d3e
00000310: 016c 89be 74df f13e 8d71 613d 888e 3ebd
00000320: 2c7b 133e 6d36 46be dd2c 4d3e c0a8 78be
00000330: f077 cbbe 72f2 db3c 2f8d 90be 30f8 2dbd
00000340: 9519 32be e34b d73e c433 b93d 9c0d f1bd
00000350: 227b d93d 45ba d6bc 309d 8e3d 2d61 393e
00000360: ccb8 f9be 87be a33e 26c9 27be d090 883e
00000370: 4f99 aa3e 0c5c 823d 479b c9be 1c63 843e
00000380: e24d a8be 98f3 f5bc 284b 353e e90c 89be
00000390: 7aaa 67bd 04bb 4e3d 022c 203e c79d 7ebe
000003a0: ef1e 61be 4f97 f1bd e58f f13e d54f 7ebd
000003b0: f96f dc3e cc9f 7b3e 1d6d cabe 4151 b63d
000003c0: 9dba bbbe fd6d d5be df2c 533e 41b0 123e
000003d0: de1c 1c3e aa96 3abe e88b 673e 44f7 78be
000003e0: 7d35 ce3e 60aa c93c 558b c73e 7462 403d
000003f0: bf0c ec3d 6e24 dcbd 9a1c e7be 9745 d7be
0.16755617 -0.41312817 -0.18069814 -0.32477584 0.18822165 0.37843516 -0.1496867 -0.30427673
0.032562684 0.38651595 0.24389848 -0.45572668 0.0066147014 -0.15223049 -0.48407096 -0.16307037
0.4424908 0.20897883 -0.077133685 0.45123842 0.26720488 -0.3000968 -0.42387265 -0.34368208
-0.059689745 -0.32887164 0.07030495 -0.42268798 0.44031835 -0.21530293 0.2967198 0.32699212
0.49224803 -0.13722357 -0.061784253 0.29776764 0.11404297 0.39236268 -0.087552495 -0.24658023
0.47714067 0.053193253 0.08026695 -0.060468238 -0.41078854 -0.16815358 0.4758684 0.20400605
0.16952386 -0.028290747 -0.46222517 -0.27071998 0.14835392 -0.23650885 -0.06590564 0.25609192
-0.3820492 0.45868808 -0.021847598 -0.49532926 0.43507624 -0.4974825 0.12836564 0.16677774
-0.4598177 -0.16976795 0.29959294 0.42053196 -0.036003273 -0.18884003 -0.04863644 0.45611238
-0.21924175 -0.16918805 -0.29177138 -0.24898154 0.031747293 0.12011968 0.120019786 0.4707927
0.43910268 -0.296764 -0.17522447 -0.119292215 -0.46038416 -0.42680675 0.118584685 0.10834073
-0.09060687 0.24607201 -0.46659517 0.42460045 -0.009867121 -0.25619859 -0.40469247 0.15271276
0.34877056 0.25781026 -0.008807596 0.18053111 -0.1316185 -0.039534286 0.1816822 -0.034670647
-0.48381886 -0.45048994 0.09010682 -0.31790003 -0.28162932 -0.32439318 -0.20366251 0.4101841
0.0911817 -0.5019236 0.34567922 0.09620676 0.27021733 -0.15111493 0.013720624 0.34021413
-0.35481954 0.33126986 0.39888737 -0.44087815 0.25386235 0.416247 0.11084 0.02119532
-0.27594835 0.41181755 -0.3543584 0.33845383 -0.026404798 0.16376269 -0.04633137 -0.4240817
0.21746251 0.062392246 0.2143703 0.018288476 -0.47158888 -0.11292912 0.4725951 0.03463075
-0.10237224 -0.02638116 0.43290398 -0.22211815 -0.05358647 -0.2771325 -0.11403672 0.039966755
0.02790851 0.03801112 0.48722407 0.25680733 -0.030144224 0.25389662 0.23718473 0.38897762
0.35690925 -0.17756708 0.3831816 0.47165853 0.32066086 -0.06518452 -0.2952363 0.29413873
0.29674998 -0.27298307 0.21359773 0.07399166 -0.39715642 -0.07497144 -0.09081156 -0.062154084
-0.36076343 0.026248608 -0.41476324 0.11388172 0.28718418 -0.18405868 0.31904858 0.44459862
-0.36114246 -0.2582779 0.5010093 -0.20427127 -0.22974947 -0.04075755 0.26503712 0.26638553
0.25992605 0.28700972 -0.39695486 0.21656668 -0.26840213 0.47240794 0.05503993 -0.046522647
0.14402455 -0.193567 0.20036645 -0.24283123 -0.39739943 0.026849005 -0.28232715 -0.04247302
-0.17392571 0.42050084 0.09043077 -0.11770174 0.10619189 -0.026211867 0.06963575 0.18103476
-0.487738 0.31981298 -0.16385326 0.26672983 0.3332009 0.06365213 -0.3937628 0.25856864
-0.3287192 -0.030023381 0.17704451 -0.26767662 -0.056559063 0.05047132 0.15641788 -0.24864875
-0.21984456 -0.11796438 0.47180095 -0.062087853 0.43054178 0.24572676 -0.39536372 0.08902217
-0.36665812 -0.41685477 0.20622586 0.14325048 0.15245387 -0.18221536 0.22611964 -0.24313074
0.40275183 0.024617374 0.3897349 0.046968892 0.115258686 -0.10749136 -0.4513901 -0.4204528

net.0.linear.bias f4 [256]
00000000: e156 febd cc42 a5be f365 32bf 42ae 383e
00000010: 6497 be3e 8d03 2c3f 370c c3bb d761 913d
00000020: 1ff1 7b3e e875 29bf 0c5b d33e 45fc 27bd
00000030: 1d98 f2be a93d 4abe ec4a ccbe 40a2 393e
00000040: c976 d0be 7e2f a0be 3e0c 873d 0ed7 9fbe
00000050: e6e8 eabe 64d9 fe3e 8ca1 723d 51ba c93e
00000060: 3e18 d43d 68ba 823e b38c 4fbe 5e79 e23e
00000070: efbd 20bf fcb5 5abe dd40 1cbf d062 ecbd
00000080: 72d8 4a3e 4d0f 333f 672f c6be 54ee 2d3f
00000090: 433d c7be 56a3 0d3e 9f3d 3fbe 3d9c f53e
000000a0: f982 113f 8aae da3e b8a1 aabd 3c62 833e
000000b0: 804c b73e 7c29 52bc e6f3 29be 3b63 fa3e
000000c0: 37df a93d ae2d f53c d338 003e 0aec fbbe
000000d0: 1c0c 21bf 9bff 1abf 450f 843d 3a35 cfbe
000000e0: 73c3 e83d 7734 1ebf c66c 04be 5602 f83e
000000f0: c181 29bf ac7c 39be 2701 513e 05a2 c0be
00000100: b615 77bd 4d9e e03e a560 f7bd 6fb7 a0be
00000110: 4039 e63e 0b2a 88bd d950 b8bd e853 74be
00000120: cc27 2e3e 1a62 f63e 7984 b4bc b111 92bd
00000130: b592 313f fbca 583d 5c0b 51bc 1edd 823e
00000140: 53f2 083f 8ae1 0bbf 15d4 853e 028a 0d3e
00000150: aa6d 0a3f 1ec2 823c 60a2 dc3e 529e 1b3f
00000160: 7c6e 263f e1e8 84be a8ce e83e f5e7 8f3e
00000170: 5c84 5d3e 5981 f43e 84a7 563e 9106 35bf
00000180: 6131 08bf a316 fcbe 2dc3 0f3e 145d dc3d
00000190: e7c1 1ebf 783a 033f 246b e13e 180b bebe
000001a0: d954 2d3e 62e0 70be bf7c f23e 3c0d f3bd
000001b0: 9a6f 023f 7e67 113e 1fd8 f6bd 1b30 13bf
000001c0: d465 18bf a170 243f 45a4 e23e d090 d83c
000001d0: a1c2 09be 336d 25bc 346e e03e e3e7 09bf
000001e0: 3684 bb3e cefb 2cbf a3e3 1bbd dabf e9bc
000001f0: 5787 303e 85a4 823e 9148 ba3e 7c4e 103f
00000200: 3087 8c3e aa12 123f 035d fbbe 2ed8 7cbe
00000210: 8a1d 053f f173 be3d b888 dcbc 988e 05bf
00000220: 1b39 0fbe b81c 2d3e 88d1 bb3e 4fde 23bf
00000230: cb2e 0abf 3cec 82be f431 073f b91d 8c3e
00000240: 7f2c 933d 5d21 2cbf 1e21 ebbd 5d07 55be
00000250: 327d 193f 4fc5 a33e 48b6 143f d9c7 173f
00000260: 8f82 193f 9f6e 303f 49f1 05bf 7d99 653d
00000270: 8c51 063f 6020 cfbe 2f45 7dbe 36a9 a6be
00000280: b40d a1be e454 223f 4994 0abf 796c 2a3e
00000290: 74bd e63e 32a4 29bf eeed 04bf 047b 373e
000002a0: 24bf 8dbe 9b2f 2c3f 9380 63be 29f0 05be
000002b0: 7642 0c3f 3397 e63e c1bb 863e fef2 dbbe
000002c0: 0aa3 6dbe fa38 e13e a261 1d3f 02c3 e4bd
000002d0: 2ece 9c3e 8278 d33e 1c8f 263f ff3a 893e
000002e0: a2de 243f 53fc c4be a2b1 8f3e 8825 2cbf
000002f0: 07ca 05bd 4784 db3e dda9 37be 17e8 1fbf
00000300: dc3d ba3e 0466 033f d83d b2be 0b2e a6be
00000310: 669e 9c3e 94ab fb3e 19cb 2bbf 3a3b c6be
00000320: 8af9 4a3e ffa1 0a3f 70bc 14bf d9b6 b13e
00000330: 4e48 2abd 8cc1 113f 3d20 993e cb4f e6be
00000340: a79d ddbe 9726 113f 4d9c bc3d 1fd4 0a3f
00000350: 0a75 e0bd 2426 d93e 9f8e e03e 0413 f9be
00000360: 23f5 f5be e7a1 01bf b84b d2be 5c4d 0e3f
00000370: 4395 213e c8c8 06bf 4a76 393e 23e2 213e
00000380: d003 2e3f 8d62 33bf fe63 2bbe 8b5f 53be
00000390: cf8e c53e d2ec 40bd 3f10 27bf 19e5 cc3e
000003a0: 0820 8c3e c889 c43e c72f 0d3f 4b8a c03e
000003b0: 65e9 353e 7bac ef3d 1e50 2a3e 4e13 153f
000003c0: 3729 2a3f 8e15 0cbf 4cc0 733e e5b6 1fbe
000003d0: 85d8 fa3e 2e61 2abe 8273 00bf 3289 d1be
000003e0: f2fd aa3e da77 13bf dffc 553e fc46 9f3e
000003f0: f1fd 08be 1bee b5be 8837 ddbd 8ea1 7f3d
-0.124189146 -0.32277524 -0.6968681 0.18035224 0.37224877 0.6719292 -0.005952384 0.070987396
0.24603699 -0.66195536 0.412804 -0.041012067 -0.47381678 -0.19750084 -0.3990091 0.181283
-0.40715626 -0.31286234 0.06594132 -0.3121876 -0.45880812 0.4977523 0.059236094 0.3939996
0.10356186 0.25532842 -0.20268516 0.4423322 -0.62789816 -0.21358484 -0.61036474 -0.115422845
0.1980913 0.6994522 -0.3870804 0.67941785 -0.38913926 0.13831839 -0.1867585 0.47970763
0.56840473 0.42711288 -0.08331627 0.25660884 0.35800552 -0.012827273 -0.16596946 0.48903832
0.08294528 0.029929008 0.12521677 -0.4920352 -0.629091 -0.60546273 0.06448225 -0.40470296
0.11365404 -0.61798805 -0.12932119 0.48439282 -0.66213614 -0.18113965 0.20410596 -0.3762361
-0.06032344 0.43870774 -0.1207898 -0.3138995 0.44965553 -0.06648644 -0.089997955 -0.23860133
0.17007369 0.4812172 -0.022035824 -0.071322806 0.6936448 0.052927952 -0.012759056 0.25559324
0.5349476 -0.5464102 0.26138368 0.13822177 0.54073584 0.015961703 0.43092632 0.6078845
0.65012336 -0.25958923 0.45470166 0.28106657 0.21632522 0.47754934 0.2096234 -0.70713145
-0.53200346 -0.4923602 0.14039297 0.10759941 -0.6201462 0.5126109 0.44027054 -0.3711784
0.16926898 -0.23523095 0.473608 -0.11867759 0.5095154 0.14199635 -0.120529406 -0.5749528
-0.5953038 0.6423436 0.44265953 0.02643624 -0.13453151 -0.010096836 0.43834078 -0.53869456
0.36624306 -0.67571723 -0.03805889 -0.028533865 0.17239128 0.25516143 0.3638349 0.5636976
0.2744689 0.5705973 -0.490944 -0.24691841 0.519982 0.09299458 -0.026920661 -0.52170706
-0.13986628 0.16905487 0.36683297 -0.6401109 -0.5397765 -0.25570858 0.528106 0.27366427
0.07186221 -0.6723841 -0.11480926 -0.2080359 0.5995666 0.31986472 0.5809064 0.5928932
0.5996484 0.68918794 -0.52321297 0.05605458 0.5246818 -0.40454388 -0.24733423 -0.32550973
-0.31455767 0.6341078 -0.54132515 0.16642942 0.45066416 -0.6626617 -0.5192555 0.1791802
-0.2768489 0.6726014 -0.22217016 -0.13079895 0.5478891 0.4503723 0.2631512 -0.42958826
-0.23206726 0.43988782 0.614771 -0.11170007 0.30626053 0.41302878 0.6506212 0.26802823
0.6440221 -0.38473758 0.2806521 -0.6724477 -0.03266337 0.42874357 -0.17935891 -0.62463516
0.3637532 0.5132754 -0.34812808 -0.32457003 0.30589598 0.4915434 -0.6710678 -0.3871706
0.19821754 0.54153436 -0.5810003 0.34709814 -0.04157286 0.56935954 0.29907408 -0.44982752
-0.43284342 0.5669951 0.092094995 0.5422992 -0.109598234 0.4241191 0.4385881 -0.4864732
-0.48038587 -0.5063767 -0.41073394 0.5558679 0.15779595 -0.5265012 0.1811153 0.1580892
0.6797457 -0.7007225 -0.16737363 -0.20641916 0.38585517 -0.04710085 -0.65259165 0.40018538
0.27368188 0.3838637 0.5515103 0.3760551 0.17764814 0.1170282 0.16632125 0.5823258
0.6646914 -0.5472039 0.23803824 -0.15597112 0.48993316 -0.16638634 -0.5017625 -0.40924984
0.3339687 -0.57604754 0.20897244 0.31108844 -0.13378121 -0.35533223 -0.10801607 0.06240993

net.1.linear.weight f4 [256, 256]
00000000: 5842 dc3a 3450 1abc 5474 52bb 2d70 e73b
00000010: 152b e13b d68e 933a 838e b7bb 662d 0f3b
00000020: dc98 53bb 66b7 953b 5789 b239 2d32 7aba
00000030: fc6c 68bb 78de 003b 0f94 7bba bee6 a1bb
00000040: dc79 a13b d325 413b 4346 49ba 1e32 383b
00000050: 378a 2b3c 934b 9a3b 3c06 743b d396 a3bb
00000060: 3f91 85bb 2d9d 7fbb 4880 fb3a db83 623b
00000070: a6dc 383c 86e3 ac3b f8f3 97bb 904b 683b
00000080: 32f0 ce3b 4e4d e3bb 309e 143b c7ac afba
00000090: 27a5 293b 1430 15bc d43c cb3b 6a86 10bc
000000a0: c22c 303b be65 39bb d6b8 a83b 8da3 14bb
000000b0: a33b bf3b 94f8 c2bb cee1 ca3b 37ad dd39
000000c0: 44b5 583c fe4a f53a 6c1c 9d3b 9f66 cc3a
000000d0: 4429 d1bb 6998 3e38 bd33 6dbb 4303 bdbb
000000e0: 56bd 8bbb 2136 473b 80e8 0cbc 75dc 0fbb
000000f0: 09e1 c73a 0434 07bc 77a7 96bb c96e 0339
00000100: d159 733b 6904 93bb b3d9 623b d302 6b3a
00000110: 6c49 a03b 8a98 37bb 47dd 573b 0a9d 3e3b
00000120: 14a8 a63b 51bc 573b 3ca6 103b 3b8f 19bb
00000130: 1669 e8ba 0de7 bdbb be17 aebb 6eff 003b
00000140: 4904 093b def1 08bb 4bcb a4bb a020 a0bb
00000150: 8cce 243c 0ab4 953b e3c8 1e3b fd04 3bbb
00000160: ef62 063b 89f5 6ebb e31a 24bb 4a4a 89bb
00000170: f015 193c 313f 60bb 2fa2 8a3b 619b c73b
00000180: 1811 6f3b 77e2 44bb 7eb4 283b 6168 8dbb
00000190: 4c4e e0bb afdf 52bb 84f3 4fbb 238e 8c3b
000001a0: 3bc5 8e3a bccd 86ba 4b97 5bb9 ea44 2f3b
000001b0: 2b8b 37bb 5195 653b 4852 8f3b d055 4d3b
000001c0: 7401 d73b abe2 6c3b 74d9 30bb 0094 91bb
000001d0: 214e 8b3b 1441 0bbb f70c fbbb e114 953a
000001e0: 4d97 42bb 9393 253b d44c 5fba 72ee c1bb
000001f0: 9f14 9b3b 4670 a03a f0b4 0bbb 1529 8ab9
00000200: d9e0 69bb 74cb d63b 8977 9b3b 2848 78bb
00000210: 6245 47bb 78bf 80bb 6644 11bb 3c21 0f3b
00000220: 2222 da3a ff42 e9b9 7cf0 b13b 8d6d a93b
00000230: f4da dabb b089 b63a ec58 003c 862a 81bb
00000240: 8d22 f93a e831 123b c1d6 363b 96c1 72bb
00000250: 3734 ac3b 4089 bfba df67 7dbb 19eb 2a3b
00000260: 9644 f1bb 63ef 1d3b 57f7 353b d9d4 47bb
00000270: 6b71 373b 2a04 87bb ab8d 6c3b d116 dfbb
00000280: 9a01 aebb a27d ca3b ae75 9a3a 33c5 e53b
00000290: 5505 943b bfb5 5b3b 51a7 77bb ddf8 cdb6
000002a0: 497a 133b 5094 3c3a fb9d ec3b ca1c 073c
000002b0: 5443 503c feb2 17bb 0895 7d3b 3980 0d3b
000002c0: 1069 d6b9 7305 a738 6566 3d3b b962 1abc
000002d0: 9ee2 0c3b 83d1 d9bb ed1c 773b 99a7 debb
000002e0: 2ee6 943a c273 e4bb 049d 29bb 96ff 9d3b
000002f0: 613c a53b d47a 8fbb 0489 bd3b 8f54 ab3b
00000300: 8ff3 173c 20c5 8bb9 104e e4ba b64e 1b3b
00000310: ddd0 953a 7159 8c3b 3ab0 653b e258 8d3b
00000320: 4ddc aabb d78d 0cbb f3bd 00bb f15f c4bb
00000330: 55e9 bfbb 57dc 66ba 80f6 9cbb a443 67bb
00000340: 1839 4a3b f8a4 05bc 2c8b e73a bf77 dc3b
00000350: 3a46 d537 215e bc3b 4953 093c 6a08 933b
00000360: 4118 9a3b d741 a2ba 0a2f 9b39 1269 de3a
00000370: 9e05 9f3b 58f1 0b3c d796 ebba 009c 26bc
00000380: 2541 9e3b 633c 4bbb 824e 8dbb 6c0f 493b
00000390: f8c5 9e3a 03fa 6b3b 9a4b 723b ab63 92b9
000003a0: db62 84bb 999b 43bb f961 4f3b d874 d7ba
000003b0: e3a8 0f3b 912f 3439 9577 1bbb 2bd4 36ba
000003c0: d106 b73b 0601 ebba d96f 3d3b 2507 4dbb
000003d0: e367 41ba de9f 3eba a0ea 263c 588e 003b
000003e0: 1be9 53b9 7601 583b 9b58 3bbb b1e5 cb39
000003f0: 0dbc 8e3b 1312 ad3b 9a6c 433a aaec 22bb
0.001680444 -0.009418536 -0.0032112794 0.007062933 0.006871591 0.0011257778 -0.0056017055 0.0021847128
-0.0032287156 0.004568982 0.00034053132 -0.000954422 -0.003546535 0.0019663852 -0.00095969526 -0.0049408367
0.004927857 0.0029472008 -0.00076780113 0.0028106044 0.010469965 0.004708716 0.0037235161 -0.004992345
-0.0040761526 -0.0039003596 0.0019188011 0.0034563455 0.011283075 0.0052761463 -0.0046372376 0.003544543
0.0063152546 -0.0069367057 0.0022677295 -0.0013402932 0.0025885792 -0.009105701 0.0062023196 -0.008821109
0.0026882146 -0.0028289403 0.0051489873 -0.0022680492 0.0058359667 -0.005950043 0.006191469 0.0004228146
0.013226811 0.0018714366 0.004794648 0.0015594548 -0.006383093 4.5441473e-05 -0.0036194168 -0.005768211
-0.004264514 0.0030397254 -0.008600354 -0.002195147 0.0015249561 -0.008252148 -0.0045976 0.00012534404
0.0037132392 -0.0044866097 0.0034614622 0.00089649594 0.004891565 -0.0028014504 0.0032938288 0.0029085302
0.0050859544 0.0032918642 0.002207174 -0.002343132 -0.0017731513 -0.0057953657 -0.005312889 0.0019683498
0.0020907095 -0.0020896117 -0.005029117 -0.0048867017 0.01005901 0.0045685815 0.0024228625 -0.0028536909
0.0020505746 -0.0036462268 -0.002504044 -0.004189764 0.009343609 -0.0034217353 0.0042307596 0.0060915207
0.0036478695 -0.003004221 0.0025742347 -0.0043154215 -0.006845271 -0.0032176783 -0.003173084 0.004289405
0.001089252 -0.0010284702 -0.00020941829 0.0026743957 -0.0028006535 0.0035031626 0.0043738224 0.0031331666
0.0065614525 0.0036145847 -0.002698508 -0.004442692 0.004251257 -0.0021248506 -0.0076614576 0.001137402
-0.0029692233 0.0025264963 -0.0008518223 -0.0059183175 0.004732683 0.0012240491 -0.0021317564 -0.0002635202
-0.0035686998 0.006555015 0.0047444743 -0.0037884805 -0.0030406346 -0.003929075 -0.0022166013 0.0021839878
0.0016642252 -0.0004449114 0.0054302793 0.00517053 -0.0066789333 0.0013926532 0.007833701 -0.0039418368
0.0019007489 0.0022307578 0.0027899 -0.0037041656 0.005255248 -0.0014613047 -0.0038666648 0.002608007
-0.0073629124 0.0024098984 0.0027765834 -0.0030491857 0.0027991186 -0.0041203694 0.0036095183 -0.00680814
-0.0053102495 0.0061795274 0.0011784339 0.0070120334 0.004517237 0.0033525077 -0.0037788937 -6.1384476e-06
0.0022503308 0.0007193731 0.007220981 0.00824661 0.012711365 -0.002314746 0.0038693566 0.002159132
-0.00040895538 7.9641955e-05 0.0028900143 -0.009422951 0.002149738 -0.00664729 0.003770645 -0.0067948815
0.0011360103 -0.006971807 -0.0025880942 0.004821728 0.005042598 -0.004378656 0.005784156 0.005228586
0.0092743775 -0.00026659016 -0.0017418284 0.0023698038 0.0011430044 0.004283123 0.0035047666 0.004313574
-0.00521425 -0.0021446848 -0.0019644469 -0.0059928824 -0.005856673 -0.0008806637 -0.0047901273 -0.003528812
0.0030856784 -0.008157007 0.0017665378 0.006728142 2.542428e-05 0.0057485257 0.008381673 0.004487087
0.0047025983 -0.0012379241 0.0002959895 0.0016968569 0.0048529645 0.008541428 -0.0017974031 -0.010169029
0.004829543 -0.0031011335 -0.0043123374 0.0030679358 0.0012113443 0.0036007173 0.0036971332 -0.00027921548
-0.004040105 -0.0029847382 0.003164409 -0.001643802 0.0021920733 0.00017183858 -0.00237224 -0.00069743645
0.0055855294 -0.0017929382 0.0028905778 -0.0031284776 -0.0007377846 -0.0007271747 0.010187775 0.0019616093
-0.00020209367 0.0032959855 -0.0028586749 0.0003889031 0.0043559135 0.0052816956 0.00074548426 -0.00248603

net.1.linear.bias f4 [256]
00000000: e66e cbbc 5505 633d 6441 033c 6e7e 2dbd
00000010: 7052 eb3c 40ad fb3c 4b98 1ebc df6c e8bc
00000020: 7246 3b3c d692 313d cbf8 a83c d11c 66bb
00000030: 0540 b73c d54e 75bd 7b83 fe3a 0913 593c
00000040: 830c 77bd a594 4f3d f9db 32bd 77e1 643d
00000050: 7127 78b9 c435 253d ddc2 6a3d c0c8 763d
00000060: 97a2 d83c 078f 71bc 14e4 853c f164 07bc
00000070: 68a2 9dbc 44bb 423d 192b b2bc 8801 783d
00000080: f685 30bd 3243 153d a6ab 43bd 7ef3 36bd
00000090: 33ac 61bd f457 79bd 8875 353c 9ffb d3bc
000000a0: 107b 093d 528b 3ebd 1e01 793d 9e9d 923b
000000b0: aa60 633d d768 25bd 8184 21bd 9d98 10bd
000000c0: 707a bd3c 476f 37bd 3196 09bd 6a1e 313d
000000d0: 6ea3 2bbc a3b8 d3bc dbaf 713c fc46 973b
000000e0: 17c6 2dbd 6bd6 023d 314d 0cbd 9ac1 78bd
000000f0: a921 3cbc e5d9 2fbd e586 673d 4f93 253d
00000100: a780 51bd 019d 543d a785 75bd 2105 a9bb
00000110: e3e2 403d b589 273c 2e9e 2c3c 98c6 6bbd
00000120: ab14 943b 3f10 233d f45f edbc d57d 503d
00000130: 0b0d d5bb ef14 783d ecdd ecbc 488c 6e3d
00000140: 9b9c 013c 0017 8f3b fca1 a2b8 37aa 3bbb
00000150: 832b 3e3c f695 543c c131 883c 3b52 97bb
00000160: e015 163d a1e9 b8bc 2da8 533d 5167 1dbd
00000170: f861 db3c 30ce 5fbc 4d5c 9c3c ad8f 2b3d
00000180: b694 06bd 1a32 5e3c 6baf 4fbd 9a6e 2abd
00000190: d710 c3bc 7fab 423d 46ef 1c3d 5b76 313d
000001a0: 95a2 cc3c 3983 9739 1f29 533b 54cb 08bd
000001b0: 3f6b b13c 237a fb3c e80e 35bd ef39 be3b
000001c0: 160f 29bc 7d54 07bc ce08 183d 49e1 dcbc
000001d0: d271 cbba f7a9 753d 7425 5a3a b5d2 53bc
000001e0: 5774 303c 3777 dfbb 15b1 a7bc a9a6 7f3d
000001f0: a8c6 293d a929 69bd 5725 dcbc e10d 5abd
00000200: e09f 47bd 6a02 88bb 1aec 31bd 7ca3 95bc
00000210: ba76 e73a d37c 66bc 4812 babc d2cd 773d
00000220: 06a9 ff3b 0bda f3bb d005 b0bc c25f 013c
00000230: 11c1 7f3d 7517 1e3d e609 533d 2ca5 c93b
00000240: c0e1 29bd 7781 70bd 93b9 28bd 04a1 53bc
00000250: 1c87 623d a397 363c 0ad3 1bbc 067e 12bc
00000260: 39db 2f3d 5c4f 60bd 5745 68bd 4ad6 06bc
00000270: 86b5 6d3c 12ed 59bb 3261 093d af3a 2cbc
00000280: 6cc3 66bd f9ae 1bbd 2e4b 5e3c 8103 44bd
00000290: 2090 9bbb 1a4c 3e3c 13e6 323d 89e6 27bc
000002a0: f058 31bc 2ae0 b93b 6663 073b 549f 373d
000002b0: 8cee 143d b08f afbc a65f 65bc 64ca 863c
000002c0: 719c 68bd ef93 71bd d1c4 53bb d1d8 0bbd
000002d0: 2386 58bd 95fc be3b a10d 55bd c6f6 05bc
000002e0: 7f4d e7bc 9f88 75bc 9100 983c b483 7f3d
000002f0: 6f8d e03c 495d 7f3d 1f3c afbc c80a d63c
00000300: 0ddd 5e3d 9b69 573c c8bb 20bd ee21 513d
00000310: d578 3bbd 2bd7 e6bc 1aff 863b 1f88 66bd
00000320: acb4 c2bc 221c 35bd 3fea 7ebd a6e5 983c
00000330: 1146 34bc 85bd 383d f450 cf3a 62c8 943c
00000340: f610 493d 418f f6bc 1d2c 43bd 49ef 63bc
00000350: 945f 41bc c573 d93c 16fe d13c 3565 03bc
00000360: 8592 06bd b134 1abb 457d 173d a1d7 1cbd
00000370: 549d 3d3d 5767 e8bc 2eda cbbc 1dd6 5a3d
00000380: 89f7 7d3d 4a24 643d cc7d 3dbc 88d0 a8bb
00000390: ce53 21bd 9c99 5dbd f24c 0f3d c23f d23c
000003a0: 88f5 16bd f22a 3c3d e7e8 d5bc 0090 433c
000003b0: e758 a33c a37e 9dbc 74ff 5abd a4fb 6dbc
000003c0: 8f67 e63b ff71 193d 128b 57bd 4881 d2bc
000003d0: aa01 d33a e6c8 c8bc 45a3 673d e4e7 193d
000003e0: 67f1 93ba 637b 283d e69d 2fbd 007e a93a
000003f0: 279f 433c a396 6a3d 013e 003c c470 2f3d
-0.024833154 0.055425007 0.008011196 -0.0423569 0.028725833 0.03072226 -0.009679864 -0.028372226
0.01143037 0.043352924 0.020626446 -0.003511239 0.022369394 -0.059889633 0.0019417846 0.013249167
-0.060314666 0.050678868 -0.043666814 0.055879083 -0.00023665816 0.040334478 0.057314742 0.060250044
0.026444716 -0.014743573 0.016344108 -0.008263812 -0.01924248 0.04754187 -0.021749066 0.060548335
-0.043096505 0.036441036 -0.04777112 -0.044665806 -0.055095863 -0.060874894 0.011075385 -0.025876818
0.033564627 -0.046519585 0.06079208 0.004474356 0.055512108 -0.040383186 -0.039433006 -0.035301793
0.023129672 -0.044783857 -0.0335905 0.043241896 -0.010475976 -0.025844878 0.0147514 0.0046166163
-0.04242524 0.031942766 -0.034253303 -0.060731508 -0.011482635 -0.04293241 0.05652513 0.040423688
-0.051148083 0.051907543 -0.059941914 -0.005158082 0.047091376 0.010225703 0.01053576 -0.05756244
0.0045190654 0.039810415 -0.028976418 0.050901253 -0.006501799 0.06056684 -0.028914414 0.05823925
0.007910873 0.0043667555 -7.754934e-05 -0.0028635391 0.011607054 0.012975207 0.016625287 -0.004617957
0.036641955 -0.02257234 0.051674057 -0.03842861 0.026780114 -0.013659999 0.019086981 0.041885067
-0.032856666 0.01356175 -0.0507044 -0.041609384 -0.02381174 0.047526833 0.038314126 0.043325763
0.024979869 0.00028898733 0.0032220555 -0.033397034 0.021657584 0.030697888 -0.04420367 0.005805246
-0.010318538 -0.00825989 0.03711777 -0.026962893 -0.0015521592 0.059976544 0.0008321621 -0.012928654
0.010769925 -0.0068196314 -0.020470181 0.0624148 0.04144922 -0.056924496 -0.026873274 -0.053235892
-0.048736453 -0.0041506784 -0.043438055 -0.018266432 0.0017659285 -0.014067846 -0.022713795 0.06049902
0.0078021316 -0.007441764 -0.021487147 0.007896366 0.06243998 0.03859659 0.05152311 0.006153723
-0.041475058 -0.058717217 -0.041192602 -0.012916807 0.05530463 0.011144551 -0.009510765 -0.008941179
0.042933676 -0.054763183 -0.056706753 -0.008229801 0.014508611 -0.0033252877 0.03353996 -0.010512038
-0.056338713 -0.038008664 0.013567729 -0.047854904 -0.0047474056 0.011614824 0.043676447 -0.010247835
-0.010824427 0.0056724744 0.0020658611 0.04482968 0.03636031 -0.02143082 -0.013999855 0.01645393
-0.05678982 -0.05897897 -0.0032313357 -0.03414232 -0.052862298 0.00582845 -0.05201495 -0.008176511
-0.028235195 -0.014986186 0.018554958 0.06238146 0.02741119 0.062344823 -0.021390973 0.026128188
0.05441003 0.013147737 -0.039241582 0.05105775 -0.04576953 -0.028178772 0.004119766 -0.05628216
-0.023767792 -0.044216283 -0.062235113 0.018664192 -0.011003033 0.045102615 0.0015816973 0.018161956
0.04908844 -0.030097606 -0.04764949 -0.0139120305 -0.011802573 0.026544461 0.025633853 -0.008019735
-0.032854576 -0.0023529942 0.0369847 -0.038291577 0.046292618 -0.028369589 -0.02488431 0.05342685
0.062003646 0.05569867 -0.011565637 -0.005151812 -0.039386563 -0.05410157 0.03498549 0.025665168
-0.03685525 0.045939393 -0.026112033 0.011936188 0.019939853 -0.019225424 -0.053466275 -0.014525328
0.007031388 0.03746223 -0.052622862 -0.025696412 0.0016098518 -0.024509858 0.05655219 0.037574664
-0.0011287153 0.041133296 -0.042875193 0.0012931228 0.0119398 0.057272565 0.007827283 0.04283215

net.2.linear.weight f4 [256, 256]
00000000: 4026 de3b 3c2f 07ba bb70 b8bb d9a6 e83a
00000010: aaad acb9 9327 e93a 11b8 38bc c6c0 4ebb
00000020: b972 d7ba 0929 a63b cea0 333c 3f01 16bc
00000030: b7c9 a938 9919 ab39 d9b0 353b e924 a73b
00000040: 12a2 5abb 5514 87bb 9b32 64bb b02e 52bb
00000050: 15dc 3d3b f6c4 37bb c055 97bb ee95 383a
00000060: 9553 feb9 c26b 113c 5fed 0a3c bbb6 9d3a
00000070: 6b1f 283b 5240 60bb cd14 aebb 1155 983b
00000080: 9893 2ebc b307 953b e453 7f3b e8a2 dbb9
00000090: 7f19 29bc b694 fdba 56aa 4d3c f3b0 c2bb
000000a0: 5216 b53b 9e52 b1bb 1c72 a7bb b3e6 023c
000000b0: e6ea 9e3b e091 70bb e1f4 263b 2714 34bb
000000c0: 9c0a 92bb 40f2 9f3b d59e 4fbb 5126 4e3b
000000d0: 5b61 04bc 5323 e3bb bb66 713b 7b46 39bb
000000e0: 8b15 b43b c545 1abb e37b 81bb d897 9e3b
000000f0: 040d 1f3a bc56 f03b 46cb d53a 8983 febb
00000100: b9ad a8bb 021e 09bc 95b2 a53b 6ca9 263a
00000110: 9270 ecb9 e937 f4bb 0d49 07bc 6469 653b
00000120: d50b 98bb 3148 8c3a 3b2e cf3b ec52 9ebb
00000130: 84f0 f03b de99 923a 02ce 03bc b222 4c3a
00000140: db48 e83b 2113 c8bb 45d9 d43a 543d 30bb
00000150: a3f9 543a ea17 623c de4f 5b3b 0717 153b
00000160: b11f d53b 783c a33b dcef 003b 94f1 28bc
00000170: c43f 35ba 0b6e 1e3b a802 b83b e36c 90bb
00000180: 0291 a03b ad55 63bb fc35 3d3b 9ae7 2fbc
00000190: 9a3b a33a 68be 6ebb 4021 b4ba 67ed 99bb
000001a0: 3797 d2ba 7ac0 9f3b 4203 3e3c 9bec 0dbc
000001b0: dd04 0abc 22c6 883b 77e9 24bc 655f 343c
000001c0: 00f9 db3b cc23 cabc f589 85bb b9d8 b7bb
000001d0: 876a 343b 9fbd 563c 2184 1f3c 50ff fb3b
000001e0: 7cd2 69ba 4756 193b 525f 3e3b ced4 92bb
000001f0: 368f 323b e441 1abc f765 51bc e04c 13bb
00000200: 19ea 463b 7b5c 0d3b 3e61 dd3b 8e8b 3939
00000210: 0692 d4b9 f9d4 893a 4423 b83a aa6e cabb
00000220: 2c0e b0bb 20c1 303c 1d94 0b3c 2d54 97bb
00000230: f19a 063a d78e 94bb ed07 1db9 e1e1 8ab8
00000240: 2664 9bbb a905 48bb 7162 493b 5737 3cbb
00000250: d563 9dbb e89a 77bb 86a5 b03a 8156 383b
00000260: 32d6 9b3b 21f6 ee39 9705 29bc 7259 35bc
00000270: 21cb 88bb 2d0c 66bc a057 003c fb11 b1bb
00000280: 06e3 c83b e7f3 a43b 9a29 bc3b d2ec bfba
00000290: 9466 81bb 5af8 ebbb 205e b8bb d6c3 e93a
000002a0: cce9 19bc 7962 a73b db4e 9ab9 7f03 2239
000002b0: 7b6b 90bb 56de 56bb d640 dcbb 7c13 9eba
000002c0: 097e 12bc b90c b8ba 3f75 8c3b a0d9 c1bb
000002d0: 151f f1bb f189 ab3b 9eb4 87bb 991e 79ba
000002e0: b2bd 873b e8b5 c2bc 5393 193c 8494 833c
000002f0: 79b6 53bb 5cd1 253c 7735 5c3b cd81 8dba
00000300: 1408 313a c82a 0cbc 0f87 f9bb a7a5 eeba
00000310: 743d 763b f3be a7bb 877f 08bc b1fd cf3b
00000320: 4ad0 9f3a 5b31 973b d7d8 8439 9d67 a63b
00000330: 5a48 28bb 04c1 bebb f192 96ba 4de6 843b
00000340: 218a 1c3b 32c5 943a b470 d43b a59f fa3a
00000350: fa0d 313b 9e93 a6bb 7cce 183a 55c7 f73b
00000360: 6d65 03bc 9362 29bb 0390 feb9 bc05 3dbb
00000370: 48ad 8b3b f6dc e13b 2bdd e9bb 16de 933a
00000380: 57ad 44ba 443a 943b 4a02 173c a3c3 413c
00000390: ab31 243b 2cd1 a7ba 9559 023a 569d 87bb
000003a0: 7bd3 433c 5bcf b8bb 60e1 71ba 37f6 79bc
000003b0: 798d dfbb 4f6f b5bb 25df cfbb 073d 5e3b
000003c0: 58dd 7ebb 7db9 c8bb f8ae 8dbb 5498 a63b
000003d0: 2009 c13b 77fa df39 1f70 90bb d932 8fbb
000003e0: 4205 96ba 0a32 ac3b 99b7 7fbb 0f3a c1bb
000003f0: c4c1 83b8 499a 03bb 826e a33b 5e1b 42ba
0.006779462 -0.000515688 -0.005628673 0.001774992 -0.00032935786 0.0017788283 -0.011274354 -0.0031548007
-0.0016437388 0.0050708097 0.010963632 -0.0091555705 8.09612e-05 0.00032634733 0.0027723818 0.0051008356
-0.0033360762 -0.004122297 -0.0034820202 -0.0032071285 0.002897029 -0.0028040982 -0.0046183765 0.0007041384
-0.0004850893 0.008875789 0.008479445 0.0012032607 0.0025653492 -0.0034218025 -0.0053125382 0.0046488126
-0.010655306 0.004548037 0.0038959915 -0.0004189231 -0.01032102 -0.0019346687 0.012552818 -0.005941504
0.0055263424 -0.00541146 -0.0051100384 0.007989573 0.0048497794 -0.0036708042 0.002547555 -0.0027477832
-0.004456831 0.0048811734 -0.0031680365 0.0031455944 -0.008079852 -0.006931701 0.0036834914 -0.002827077
0.005495732 -0.002354012 -0.003951536 0.0048398785 0.0006067308 0.0073345583 0.001631119 -0.007767145
-0.0051476625 -0.008368971 0.005056689 0.0006357643 -0.000450973 -0.007452954 -0.008257163 0.0035005445
-0.0046400824 0.0010702667 0.00632265 -0.0048316624 0.0073528904 0.0011184772 -0.008044722 0.00077871524
0.007088763 -0.006105796 0.0016239068 -0.0026892023 0.0008124357 0.013799647 0.0033464353 0.002274932
0.006504022 0.0049815737 0.0019674217 -0.010311503 -0.0006914104 0.0024174477 0.005615551 -0.0044075116
0.004900099 -0.0034688518 0.0028871289 -0.01073637 0.0012453676 -0.003642941 -0.001374282 -0.00469749
-0.0016066794 0.00487524 0.011597456 -0.008662368 -0.008424011 0.00417401 -0.010065428 0.011009072
0.0067130327 -0.024675272 -0.0040752837 -0.005610552 0.0027529316 0.013106733 0.009736092 0.0076903477
-0.0008919609 0.0023397373 0.0029048515 -0.0044809347 0.0027246005 -0.009415124 -0.012780658 -0.002247624
0.0030351935 0.0021570015 0.006755977 0.00017694963 -0.00040544587 0.0010515741 0.0014048596 -0.006177743
-0.005372783 0.010788232 0.0085192 -0.004618189 0.00051347824 -0.0045336294 -0.0001497564 -6.622426e-05
-0.0047421632 -0.0030520952 0.0030728842 -0.0028719509 -0.0048031607 -0.003778154 0.0013477064 0.0028127732
0.0047557587 0.00045578278 -0.010316274 -0.011068689 -0.0041746055 -0.014040989 0.007833391 -0.0054037548
0.006130579 0.0050339582 0.005742264 -0.0014642722 -0.003948996 -0.0072012367 -0.005626455 0.0017834853
-0.00939412 0.0051081744 -0.0002943192 0.00015450826 -0.004407344 -0.003278633 -0.0067215962 -0.001206025
-0.008941182 -0.0014041878 0.0042864378 -0.0059158355 -0.0073584416 0.0052349498 -0.0041414043 -0.00095031556
0.0041424865 -0.02376838 0.009373504 0.016062029 -0.0032304807 0.010120716 0.0033601203 -0.001079613
0.0006753218 -0.008555122 -0.007614977 -0.0018207327 0.003757325 -0.0051191985 -0.008331186 0.006347381
0.0012192812 0.004614038 0.0002533856 0.0050782696 -0.002567789 -0.005821349 -0.0011487884 0.0040557743
0.0023886042 0.0011350273 0.006483162 0.0019121064 0.0027016387 -0.0050835153 0.00058291084 0.007561604
-0.008019787 -0.0025846108 -0.00048553952 -0.002884253 0.0042626 0.0068927957 -0.007136961 0.0011281397
-0.0007502636 0.0045235474 0.009216854 0.011826429 0.0025054018 -0.0012803427 0.0004972455 -0.004138629
0.011952276 -0.005639953 -0.0009227004 -0.015256456 -0.006822285 -0.0055369507 -0.0063437396 0.0033910887
-0.0038889255 -0.0061256276 -0.0043238364 0.005084077 0.0058909804 0.00042720485 -0.004407897 -0.004370075
-0.0011445659 0.0052549886 -0.0039019345 -0.0058968137 -6.2826584e-05 -0.0020080975 0.004987539 -0.0007404591

net.2.linear.bias f4 [256]
00000000: ffd9 a53c 0f4a c33b f020 36bd e211 57bd
00000010: 7e76 013d 020a 06bc 482e 043d 5821 4bbd
00000020: 2247 a7bb c50e 1fbc 904c 4d3c ae84 3ebd
00000030: a51a c23c 7659 e6bc f7e9 84bb 1d88 19bd
00000040: 29e7 82b9 add4 893c 34fa 183c f790 3c3d
00000050: 1501 49bd 66a5 59bd ad1a b53c 6dec 5abd
00000060: 8bf0 343d 0a74 04bd 1ef4 48bd da93 52bd
00000070: 9833 183d a385 42bd 3950 f3bc e624 383c
00000080: d7d1 dabc 9eef 4a3d 6ed5 39bd b477 8f3c
00000090: 912d 9cbc ec59 57bc 34f5 f53a db63 a5b9
000000a0: e408 a7bc bb71 81bb 36f3 10bd 6037 26bd
000000b0: 1ae5 2a3d 70c5 11bd 98cd 2cbc b523 a5bc
000000c0: 164f 83b9 ae30 603d b9e7 113c 68f4 d8bc
000000d0: 226d 9f3b c48b 543d 5b0b 593d 407b 283d
000000e0: bad9 8a3c 2abb 4d3d ca1a 813d a4e3 cc3c
000000f0: aed1 643d a7cc 413d c6ea 003d 31a8 66bd
00000100: d248 203c 5c91 26bd e698 cf3c 24b2 14bc
00000110: ef07 77bd 9691 14bd 616a 42bd 52b6 7c3d
00000120: 2933 3c3d d1cb 233d f4b3 27bd de93 403d
00000130: 72ee 1f3d aa73 2ebd 9f5b a5bc aa8d 153d
00000140: 063d fe3c aee8 363d 1b3b 693d 3167 37bc
00000150: e83e 05bc 9f70 a8bc 66d4 83bc d60a 56bd
00000160: 719e 563d a231 a63c a334 35bd a1a6 6cbc
00000170: 87df 373b 4395 4cbd bb4f 18bd 4977 213d
00000180: 3810 f93c 77d7 a73b 7cc9 6e3d 7847 a13c
00000190: ffbf 22bc 4a5e 4a3d f6f0 7fbd 69d7 363d
000001a0: a5fd fe39 0a2b 74bb f29a 133d 5ce0 ecbc
000001b0: 0005 423d 43c9 103d 2707 1b3d abd6 603d
000001c0: 872b 813d bc0d 47bd e923 493c a992 093c
000001d0: 37aa 8ebb ce6a b4bc 0c02 4abd 13a3 5bbd
000001e0: 5f0c 97bb 51e2 333d e816 b13b 8815 bb3b
000001f0: 0c1d c9bc 1860 3c3d 583d 2cba e84b 0ebd
00000200: 7192 c53b 6de8 27bc af4a 47bd 55e8 313c
00000210: f78b 66bd 7897 6ebd 7774 c73c 652c 5f3c
00000220: dbda 943a 791d 77bd ed24 5d39 34f7 25bd
00000230: 4c10 16bd e768 5bbd edf3 07bd a9fd 27bc
00000240: b965 f43c fce1 3fbd a181 993c 70c4 963b
00000250: 2b60 023d ffe0 57bd 8c79 1ebc 3018 4b3c
00000260: 548e 823d 8912 523d fb00 74bd 23b7 51bc
00000270: 80cc 7cbc 3d41 73bd 2053 a33c 091c 823d
00000280: 0f0b 16bd 8577 fdbc 4df9 06bd 52bf 34bd
00000290: 07b9 12bd 0821 79bb 7adb d33c b862 42b9
000002a0: 12ce 75bd 33d5 593d 457e 81bd 43b2 5a3d
000002b0: ad8b d83c b91f 2abd 7d8d b33b 914a d3bc
000002c0: 51d4 613d 586b 3bbd ef5c 45bd 040d 613c
000002d0: df59 493d 23b1 d6bc bdb9 99bc a45e 443d
000002e0: 68f6 ebbc ac66 ecbc 0553 d3bc 4313 843c
000002f0: a108 eb3c 12b6 543d b021 b8bc 0cc1 233d
00000300: 77e8 4b3c 3aff 633c 5c4d 263b 2b64 9b3c
00000310: 9d96 b1bc 36f1 fdbb 8d05 6fbc 52e0 ea3b
00000320: 97c6 3a3a 8136 5fbd 59d7 27bc 59b0 e2bc
00000330: da66 7abc 42de 6dbc 7c99 bb3c f15b 333c
00000340: ab41 5cbd abd4 a5bc bb97 953c d3ea 503b
00000350: ade3 29bd cdf9 f7bc f6c4 47bd dfaf ea3c
00000360: 574b 13bd de46 923c ac08 dd3c d4ac 32bd
00000370: cf90 633c 721a a13c 5734 6ebd f668 98bc
00000380: 8ce9 0cba 1464 fe3c 6781 e5bb 26dc 36bc
00000390: f0d6 a7bc d018 563d daa8 b03b 97a4 9abc
000003a0: 783b 063d 831a e93c cb72 96bc dbd2 943b
000003b0: 9710 1ebd e74f 693c f1ee 263d 1c7e 1bbd
000003c0: 16fe 30bc 8519 02bd d2e6 62bd a2ff 4cbd
000003d0: c6d9 7d3d 489b b33c 59eb f3bc 8c2a de3c
000003e0: 01a1 933c 31bd c53c ced1 21bd 3720 2cbc
000003f0: 8a59 703d 5877 2fbd 4ce5 6fbd 1983 2cbd
0.02024555 0.005959756 -0.044465005 -0.05250729 0.031607144 -0.008181097 0.0322707 -0.049592346
-0.0051049152 -0.009708111 0.012530461 -0.046513252 0.023694346 -0.02811883 -0.004056211 -0.037483323
-0.0002496776 0.016825045 0.009336997 0.046036687 -0.049073298 -0.053136252 0.022107447 -0.05344813
0.044174712 -0.032337226 -0.049060933 -0.051410533 0.03715858 -0.047490727 -0.02970134 0.011239266
-0.026711388 0.049544923 -0.045369558 0.017513134 -0.019064697 -0.013143998 0.0018765093 -0.0003154565
-0.020389982 -0.0039503253 -0.035388194 -0.040580153 0.041722395 -0.03558868 -0.010547064 -0.020158628
-0.0002504519 0.054733925 0.008905345 -0.02648373 0.0048653046 0.051891103 0.052989345 0.041133165
0.016949523 0.05022732 0.06303938 0.025010891 0.05586403 0.047314312 0.031473897 -0.056312744
0.009782987 -0.04066597 0.025341462 -0.009075675 -0.0603103 -0.036271654 -0.047464732 0.06169731
0.045947228 0.039989296 -0.0409431 0.047016017 0.03904576 -0.042590775 -0.02018529 0.036512055
0.031034958 0.044655494 0.056941133 -0.011194036 -0.008132674 -0.020561514 -0.01609249 -0.052256428
0.052397195 0.020287339 -0.04423965 -0.014444024 0.0028056817 -0.049947035 -0.037185412 0.0394204
0.030403242 0.005122121 0.05829762 0.0196874 -0.009933471 0.049406327 -0.062485658 0.044639025
0.00048635635 -0.0037257099 0.03603644 -0.028915577 0.04736805 0.035348188 0.037848618 0.054892223
0.0630713 -0.048597082 0.012276628 0.008396783 -0.0043537873 -0.022023585 -0.04931836 -0.053622317
-0.004609629 0.043917004 0.005404342 0.005709354 -0.024549983 0.04599008 -0.000657042 -0.03474036
0.00602942 -0.010248286 -0.04865521 0.010858615 -0.056285825 -0.05824992 0.024347527 0.013621424
0.0011356728 -0.06033084 0.00021089958 -0.040518954 -0.036636636 -0.05356684 -0.03319161 -0.010253348
0.029833661 -0.046846375 0.01873857 0.004601054 0.031829994 -0.052704807 -0.009672534 0.0123959035
0.06374803 0.051287208 -0.059571248 -0.012800011 -0.015429616 -0.059388388 0.019937098 0.063530035
-0.03663164 -0.03094078 -0.032952596 -0.04412777 -0.035820987 -0.0038014073 0.02586149 -0.00018538057
-0.060010977 0.05318184 -0.06322912 0.05339266 0.02643379 -0.04153416 0.005479513 -0.025792392
0.05513412 -0.045756668 -0.04818433 0.013736013 0.049157973 -0.026207512 -0.018765325 0.04794182
-0.02880402 -0.028857552 -0.025796423 0.016122466 0.028690638 0.05193145 -0.022477001 0.039979026
0.012445561 0.013915831 0.00253757 0.018968662 -0.021678263 -0.007749702 -0.014588726 0.0071678543
0.0007124929 -0.05449534 -0.010244214 -0.02767198 -0.015283311 -0.014518322 0.022900335 0.0109472135
-0.053773563 -0.02024301 0.018260827 0.0031878247 -0.041476894 -0.030270481 -0.04877182 0.028648315
-0.03596052 0.017856058 0.026981674 -0.043621853 0.0138895055 0.01966593 -0.058155384 -0.018604737
-0.00053753774 0.03105358 -0.0070039514 -0.011160886 -0.020488232 0.052269757 0.0053912224 -0.01887731
0.032771558 0.028455025 -0.018365284 0.0045417375 -0.03859004 0.014240242 0.040755216 -0.037962064
-0.010802766 -0.03176262 -0.05539591 -0.050048478 0.061975263 0.02192463 -0.029775308 0.027119897
0.018021109 0.024138065 -0.039506726 -0.0105057275 0.05867914 -0.042838424 -0.058568284 -0.042117212

net.3.linear.weight f4 [256, 256]
00000000: 000a 6f3b d344 35bb e398 a23a 5116 7cbb
00000010: eeca b638 1899 38b9 e861 5fba ad1d 163b
00000020: d036 fd3a aa04 553b d285 e23a b3e3 b83b
00000030: 2163 c6bb 9746 4fbb f43a 94bb 0204 2c3a
00000040: 9c00 713b 3e4e 31ba 6c54 2bbb c1fd 9d3b
00000050: 6024 f6ba fbf1 883b bef1 0cba 8842 b03a
00000060: e803 993b 370c 7bbb 3b69 493b 49b6 a1bb
00000070: 19ac 0dbb f259 60b9 711f 853b f7b0 f5ba
00000080: 19b1 9d3a c15f 0ebb 1bf7 f3ba 4be2 1f3b
00000090: 66ed 283b 2c9a b13b 9dda 5cba 065a 4dbb
000000a0: 1667 0b3b 4d69 c9bb a56f 4f3b f2f8 123b
000000b0: 85c2 a2bb 0082 9a3b bce8 61bb 5927 bbbb
000000c0: 81ec 64bb 07be 533b 7b08 453b a8c1 d1ba
000000d0: c799 abbb 737e 54bb 8447 083b bc6a 7e3b
000000e0: 8e90 5439 482c 61bb 0a7c 81b8 e337 523b
000000f0: 6771 8a3b 0a15 fcba c75e 153b 05a7 413b
00000100: befa bb3b e265 5bba d9ad 14bb 05e9 9e3a
00000110: a27d a0bb cb85 12b7 77a7 173b ff7d 50bb
00000120: 7575 9e3b 1b4d 7bbb 85eb 4d3b 0eff 86ba
00000130: ec37 52bb b1a6 c93a 9836 6c3b 292c a23b
00000140: 2e25 1c38 f77f 643b 0c51 e3bb c0ed 30bb
00000150: 08e1 d93a aa24 c83a 0b98 d83b 562d 89bb
00000160: 4b18 21bb 4efe 823a b293 a0bb 055f 17ba
00000170: f34e eeba b405 5c3b a27a bfba 7a45 2e3b
00000180: cd12 4bb9 f05e 28bb a1a6 2d3b 1f95 e3b9
00000190: 60d5 1aba d4ac 43bb 3434 7f3b e349 503b
000001a0: ab8e bbb9 ee35 583b 9a91 a33b a95b 093a
000001b0: cead faba c156 883a e448 9b39 5fe3 153b
000001c0: c098 223b 6fad 133a 50b0 2a3b cd86 b739
000001d0: a822 bd39 51ee 43bb a2cc e93a 3a31 b13b
000001e0: dec4 843b eed2 c33b 80f5 ffb9 4699 733b
000001f0: c6c2 003b 9516 8b3b ccca 503b b9c8 35bb
00000200: ba48 b0bb 939b 1fbb 4cb7 85b9 4463 13ba
00000210: 5426 8f3a 821b 973b 2f19 a63b 34ea 7dba
00000220: 657d 2d37 744c 14ba c0a9 7c3b b0b9 83bb
00000230: 1ec6 c6ba b0fd 713a 970e 2238 ff3b 40bb
00000240: 8581 87bb dc3c 2abb c702 db39 639a b03b
00000250: 49c1 b4ba d7a5 49bb 1f23 76bb b014 a5bb
00000260: de9c 9fbb e75f 3fbb 0978 833a 6a78 cf3b
00000270: 0e61 dcba 655e 0cba 8cef a13b 7e6b 2b3b
00000280: 6c19 a13b 265f 6dbb 08ec ae3b 39de 11bb
00000290: ac56 8fbb 898c 1539 3fb7 673b c64b 5cbb
000002a0: bb2e b73a 7f14 893b 1c16 af3a bd3b 25bb
000002b0: 1f8e 6b3a d897 003b 1657 86bb b853 ecba
000002c0: 65f7 a73b 9d80 d5bb f1c5 13ba 3fa8 9b3b
000002d0: 896f 2cbb 0246 8cbb 7c4b 18bb 208d 073b
000002e0: a778 61bb e59c a03b 8b9b 4dbb 8ed5 81bb
000002f0: 9640 143b 5a10 9ebb 6c2a 00bb ec13 923b
00000300: 9b83 913a 5c91 83bb 325f 87bb 0044 96bb
00000310: 024b 2dbb 101f 8cbb 1902 0fbb 009a 973a
00000320: 7a0b cbb8 0b33 89ba 9a63 63bb 4700 5cbb
00000330: cf88 20bb 8b84 dab9 7b4b e03a d2b8 9cbb
00000340: f70b f03a f26b 7aba a8a2 b4bb 01a3 8b3b
00000350: aeaf 37bb e201 913b eed8 50bb 2676 21ba
00000360: 05bc 9d3b f052 893a f3fe ce3b a19f 5abb
00000370: ab80 863b 4396 8d3b 93a4 d83a 4e70 493b
00000380: 5dbc 9a3b c8ed 7dbb 0dd5 29bb bce1 08bb
00000390: a779 27bb a98b 62bb 418d 7cba 98cc 7d3b
000003a0: ee1a 17bb a4e1 bf39 c507 87bb 7a34 aebb
000003b0: da63 28bb 9a87 15bb 892c b53b 59ee 2f3b
000003c0: 3878 9abb 2fae af3b df3d 433b a44a f03a
000003d0: ed35 c2bb bec0 173b 7ae4 a8bb 2415 e9ba
000003e0: 92ea a1ba 95d0 65bb 90e0 333b 7c39 6f3b
000003f0: a273 943b a649 ecba a5ed beba ac84 4d3b
0.0036474466 -0.002765943 0.0012405183 -0.003846545 8.716235e-05 -0.0001760464 -0.0008521364 0.0022905872
0.0019318704 0.0032504 0.0017282313 0.0056423782 -0.0060542976 -0.0031627768 -0.0045236293 0.00065618765
0.0036774045 -0.0006763673 -0.0026142849 0.0048215096 -0.0018779151 0.004179237 -0.00053765986 0.0013447562
0.004669655 -0.003830684 0.0030732888 -0.00493506 -0.002161747 -0.00021395812 0.004062586 -0.0018744756
0.0012030929 -0.0021724554 -0.0018613072 0.0024396356 0.0025776266 0.00541999 -0.000842491 -0.0031334176
0.002127116 -0.006146586 0.0031652239 0.0022426215 -0.004967036 0.0047152042 -0.0034470996 -0.0057114777
-0.0034931006 0.003230931 0.003006487 -0.0016003149 -0.0052368375 -0.0032424002 0.002079458 0.0038820943
0.00020271746 -0.003435867 -6.1743034e-05 0.0032076768 0.0042249444 -0.0019232344 0.0022792087 0.0029549014
0.005736678 -0.0008369369 -0.002268663 0.0012123889 -0.004897789 -8.733429e-06 0.0023140588 -0.003181338
0.0048357793 -0.003834552 0.0031420898 -0.0010299401 -0.003207679 0.0015384761 0.0036043283 0.004949112
3.7227925e-05 0.0034866312 -0.006937152 -0.0026997179 0.0016622851 0.0015269716 0.006609922 -0.0041863127
-0.002458113 0.0009994002 -0.004900419 -0.0005774352 -0.0018181488 0.0033572735 -0.0014608691 0.0026591704
-0.00019366592 -0.0025691353 0.0026497024 -0.00043407918 -0.0005906429 -0.0029857652 0.0038941028 0.0031782321
-0.00035773715 0.003299113 0.0049917223 0.00052397937 -0.0019125284 0.0010401831 0.00029618212 0.002287112
0.0024810284 0.00056334486 0.0026045032 0.00035004914 0.0003607471 -0.0029896686 0.0017837475 0.0054074796
0.0040517887 0.0059760725 -0.00048820302 0.0037170216 0.0019647344 0.0042446353 0.0031859158 -0.0027738048
-0.0053797634 -0.0024354204 -0.00025504304 -0.0005622397 0.0010921457 0.0046114335 0.00506892 -0.0009686083
1.0340799e-05 -0.00056571444 0.0038553327 -0.0040199384 -0.0015165245 0.0009231223 3.8637398e-05 -0.0029332635
-0.004135313 -0.0025976216 0.00041773004 0.005389498 -0.0013790514 -0.0030769014 -0.0037557555 -0.0050378665
-0.004870995 -0.002920145 0.001003028 0.006331493 -0.0016813593 -0.0005354642 0.0049418863 0.00261566
0.0049163606 -0.0036220043 0.0053381957 -0.00222577 -0.0043743458 0.00014262101 0.0035357026 -0.00336145
0.0013975719 0.0041833515 0.001335803 -0.0025212609 0.0008985716 0.0019621756 -0.004099737 -0.0018030321
0.0051259273 -0.006515576 -0.00056371005 0.004750281 -0.0026311597 -0.0042808065 -0.0023238352 0.0020683482
-0.003440419 0.004901516 -0.0031373228 -0.0039622253 0.0022621504 -0.0048237266 -0.0019556535 0.0044579413
0.0011101844 -0.004015131 -0.004131221 -0.004585743 -0.0026442413 -0.004276164 -0.0021821319 0.0011566281
-9.681932e-05 -0.0010467482 -0.0034696818 -0.0033569501 -0.0024495607 -0.00041678952 0.0017112339 -0.0047827745
0.0018314113 -0.0009552828 -0.005512554 0.004261375 -0.0028028297 0.0044252733 -0.0031867581 -0.0006159268
0.0048136734 0.0010476988 0.0063170134 -0.0033359306 0.004104694 0.004320891 0.0016528539 0.0030737105
0.0047221617 -0.0038746465 -0.0025914342 -0.0020886501 -0.0025554688 -0.0034568107 -0.00096340856 0.0038726684
-0.0023056823 0.00036598474 -0.0041207992 -0.0053163143 -0.0025694282 -0.002281642 0.0055289906 0.0026844947
-0.004714038 0.0053613405 0.0029791517 0.0018332792 -0.0059268386 0.0023155655 -0.0051541897 -0.001778279
-0.0012353233 -0.0035066952 0.0027447082 0.003650277 0.004530386 -0.001802732 -0.0014566673 0.0031359596
