implicitterrain_demo/2494_1141/shape_model.pth (torch, 797616 bytes, 9 tensors)

net.0.linear.weight f4 [256, 2]
0	0xbee1154f	-0.4396157
1	0xbe92bd1d	-0.28659907
2	0xbed2e550	-0.41190577
3	0xbe527882	-0.20553783
4	0xbe96ebcb	-0.2947677
5	0xbe796b0d	-0.24357243
6	0xbe38cbf5	-0.18046553
7	0xbed93f9d	-0.42431346
8	0x3e341ec5	0.17589863
9	0xbced12f3	-0.0289397
10	0xbecb6525	-0.39725605
11	0xbe8b37cc	-0.27191007
12	0x3d51832d	0.05115049
13	0xbe9003a5	-0.2812778
14	0x3e9ec1bd	0.31007186
15	0xbde90bf6	-0.113792345
16	0xbdb38743	-0.087660335
17	0x3eac015c	0.33594787
18	0xbe23d162	-0.15997842
19	0xbef56160	-0.47925854
20	0xbd80a644	-0.06281713
21	0xbe87a00e	-0.264893
22	0xbeab4486	-0.33450717
23	0xbe8dee59	-0.27720907
24	0xbe94643e	-0.2898273
25	0x3e072e8f	0.13201354
26	0x3e961d32	0.2931915
27	0xbef6d16e	-0.48206657
28	0x3ee1588a	0.44012862
29	0x3e007cdd	0.12547632
30	0xbc9016af	-0.017588941
31	0x3d66f188	0.056382686
32	0x3e5f3c66	0.21800384
33	0x3d9cb2a1	0.07651258
34	0x3e696be3	0.22795062
35	0xbe775e29	-0.24157013
36	0xbe5aa28a	-0.21351066
37	0xbdd1ceea	-0.10244544
38	0x3ee5dced	0.44895115
39	0x3c4ad8de	0.012380807
40	0xbe7bbf85	-0.24584778
41	0xbe8749d0	-0.26423502
42	0xbdc29d88	-0.09502703
43	0xbe4f1c77	-0.20225702
44	0x3e0eea21	0.139565
45	0xbeef8001	-0.46777347
46	0x3ee6a467	0.45047304
47	0x3d1b5f2f	0.03793257
48	0xbd9f4847	-0.07777458
49	0xbeb8586d	-0.36004964
50	0x3ef5381c	0.4789437
51	0xbdb2fc96	-0.08739583
52	0x3daabd09	0.08336837
53	0x3ec09c5a	0.37619287
54	0x3edf8152	0.4365335
55	0x3ea6337c	0.32461154
56	0x3ebfce5a	0.3746212
57	0x3dcc3367	0.09970742
58	0x3e34587e	0.17611882
59	0xbea9172c	-0.3302549
60	0x3e77b4fb	0.24190132
61	0xbbae5d6d	-0.005321196
62	0xbed125aa	-0.40849048
63	0x3ec1d9da	0.3786152
64	0xbe735463	-0.2376266
65	0x3ee13dcd	0.43992463
66	0xbe854893	-0.26031932
67	0xbdee07a7	-0.11622553
68	0x3ecbc926	0.39801902
69	0x3ed228b3	0.41046676
70	0x3ea0402d	0.31298962
71	0xbecf2913	-0.40461025
72	0xbea7a3eb	-0.32742247
73	0xbd2b36dd	-0.04180037
74	0xbed064e6	-0.4070198
75	0xbe2cb95c	-0.16867584
76	0x3e899398	0.26870418
77	0xbdf9d8d7	-0.12199562
78	0x3eb44750	0.35210657
79	0x3eb0ce49	0.34532383
80	0x3b29f488	0.0025933105
81	0xbc6067df	-0.01369664
82	0x3ea656d2	0.32488114
83	0x3e12c1f5	0.14331801
84	0xbd78a965	-0.060708422
85	0x3ea653a1	0.3248568
86	0xbe6b0856	-0.22952399
87	0xbe956a29	-0.29182556
88	0x3e9589a0	0.29206562
89	0xbddf480b	-0.10902413
90	0x3ec0edbf	0.37681386
91	0xbe984c1e	-0.29745573
92	0x3ed99694	0.42497694
93	0xbdc764c6	-0.09736018
94	0x3eaa5010	0.33264208
95	0xbea496a5	-0.32146183
96	0xbde0098d	-0.10939322
97	0x3eaa5bbf	0.33273122
98	0xbe1c2007	-0.15246592
99	0xbeb7681d	-0.3582162
100	0x3d0a5ad6	0.033778034
101	0x3ec402b7	0.3828332
102	0xbd26ad08	-0.04069236
103	0xbd3efea8	-0.046629578
104	0xbefb0be6	-0.49032515
105	0xbd23b356	-0.03996595
106	0x3ecb4ddb	0.39707837
107	0xbed3cf64	-0.41369164
108	0x3c99c7ab	0.018771967
109	0x3ecfcb52	0.4058481
110	0x3ed8d383	0.4234887
111	0xbea39662	-0.3195067
112	0xbd87d40b	-0.06632241
113	0xbe9077b2	-0.2821632
114	0xbefed817	-0.49774238
115	0xbd041a11	-0.03225142
116	0x3ee7b69b	0.45256504
117	0xbe30906e	-0.17242596
118	0x3e460ed6	0.19341597
119	0x3eaa54be	0.33267778
120	0xbda75bfc	-0.081718415
121	0xbee4b710	-0.44670916
122	0xbc47f858	-0.012205206
123	0xbeb9a63e	-0.36259645
124	0xbec144c5	-0.3774778
125	0xbba1ba37	-0.0049355286
126	0x3bce2c86	0.0062919287
127	0x3e4f2321	0.20228244
128	0xbeee7e1d	-0.46580592
129	0x3ea628cc	0.32453
130	0x3ea30cf6	0.31845826
131	0xbeb0bd5b	-0.34519467
132	0xbdab4c0f	-0.083641164
133	0x3efb019d	0.49024668
134	0xbd26eede	-0.040755145
135	0xbeea616e	-0.45777458
136	0xbda37e16	-0.07983033
137	0x3ed0453a	0.40677816
138	0xbe9270c7	-0.28601667
139	0xbede7f17	-0.43456337
140	0x3eebff9e	0.46093458
141	0x3ed29628	0.41130185
142	0x3de911d7	0.11380356
143	0x3c9b4369	0.018953042
144	0xbeb9617a	-0.3620718
145	0x3e81e192	0.2536741
146	0x3ca9a4c6	0.020708453
147	0xbed3f96a	-0.41401225
148	0x3eabf23b	0.33583245
149	0x3e19a2d7	0.15003525
150	0x3edda014	0.43286192
151	0x3e89fd47	0.26951048
152	0x3cac55b9	0.02103697
153	0x3eea4fb3	0.4576393
154	0x3e6ff65d	0.23433824
155	0xbe64a561	-0.22328712
156	0xbed9a7cc	-0.4251083
157	0x3ee0a176	0.43873185
158	0x3e228964	0.15872723
159	0xbec19359	-0.3780773
160	0xbdec9425	-0.11551694
161	0xbe5e6902	-0.21719745
162	0xbe86bae1	-0.26314452
163	0xbe003e8f	-0.12523864
164	0xbd9a4169	-0.07532007
165	0xbde3ecc8	-0.11129147
166	0xbeae1eec	-0.34007967
167	0x3dc022bd	0.09381626
168	0xbe396b80	-0.18107414
169	0x3e9999db	0.30000195
170	0x3e3a52aa	0.18195596
171	0xbcf1b46f	-0.029504983
172	0x3d98e122	0.07464816
173	0xbd21500c	-0.03938298
174	0x3ee26850	0.4422021
175	0x3d193d19	0.037411783
176	0xbdf7c4bc	-0.12098071
177	0xbdf6af37	-0.12045138
178	0xbe3ea6d6	-0.1861833
179	0xbdb76924	-0.08955601
180	0x3e9dacba	0.30795842
181	0x3e939eb1	0.2883201
182	0x3e6e0b11	0.23246409
183	0xbe8c9802	-0.27459723
184	0x3ebaca5d	0.36482516
185	0xbe959c97	-0.2922103
186	0x3e2467d7	0.16055237
187	0x3eaab240	0.3333912
188	0x3ea8da6e	0.3297915
189	0x3e612c45	0.21989544
190	0xbec1021f	-0.3769693
191	0x3eda1461	0.42593673
192	0xbed8d762	-0.42351824
193	0xbeb917b7	-0.36150905
194	0xbdee4387	-0.116339736
195	0xbee6d731	-0.45086053
196	0x3edde66c	0.4333986
197	0xbe1eb8a6	-0.15500125
198	0xbeb6cf7f	-0.35705182
199	0x3e5a8b3d	0.21342178
200	0xbdefe975	-0.1171445
201	0x3eaca832	0.33722073
202	0x3e1a4247	0.15064345
203	0x3ecfcf70	0.4058795
204	0xbdd04ab0	-0.101704955
205	0xbbbeacd2	-0.0058189416
206	0xbec13ba3	-0.37740812
207	0x3e612a47	0.21988784
208	0xbd983a15	-0.07432953
209	0xbe242990	-0.1603148
210	0xbee14b6f	-0.44002864
211	0x3e26eb9e	0.16300818
212	0x3ef0f229	0.47059754
213	0x3d88b376	0.066748545
214	0x3ef2ac02	0.47396857
215	0xbea09615	-0.31364504
216	0x3efdd5cc	0.49577177
217	0xbe32a260	-0.17444754
218	0x3ee72442	0.4514485
219	0x3d4ff0bb	0.050766688
220	0x3eb3a513	0.3508688
221	0x3e6857b4	0.22689706
222	0x3ec7a336	0.38991708
223	0x3ebcab88	0.36849618
224	0x3e9e9730	0.30974722
225	0x3eea42d2	0.45754105
226	0xbeda923c	-0.42689693
227	0xbe85a4b1	-0.26102212
228	0x3d809fd4	0.06280485
229	0xbbdd7908	-0.006758813
230	0xbe359af6	-0.17734894
231	0x3ee55865	0.44794002
232	0xbdfa238d	-0.12213812
233	0x3e6a0e0b	0.2285692
234	0x3ef3e4f6	0.4763562
235	0x3ef35954	0.4752909
236	0xbe61e1b1	-0.2205875
237	0x3e1d3aae	0.15354416
238	0xbdb06acb	-0.08614119
239	0xbef913c4	-0.48647892
240	0x3ebd9a1e	0.37031645
241	0x3dee3c17	0.11632555
242	0x3ebb55c5	0.36588874
243	0x3ec6dd24	0.38840592
244	0x3eaadd7e	0.3337211
245	0xbe675bbc	-0.22593588
246	0xbcbd89f6	-0.023137074
247	0xbef43926	-0.4769985
248	0x3ede749d	0.43448344
249	0xbe1b23d0	-0.1515038
250	0xbd578352	-0.05261547
251	0x3eeb3fea	0.459472
252	0xbe9504c6	-0.29105204
253	0x3ed90f4f	0.42394492
254	0xbec6d339	-0.38833025
255	0x3e2dbdb8	0.16966903

net.0.linear.bias f4 [256]
0	0x3d7bf34c	0.061511323
1	0xbf04613c	-0.5171087
2	0x3ce1d725	0.02756841
3	0xbf1e23f1	-0.6177359
4	0xbf2b1406	-0.6682743
5	0x3c3e7da7	0.011626638
6	0x3f04be24	0.5185263
7	0xbeb559cc	-0.35420072
8	0xbeba8b75	-0.36434522
9	0x3e725515	0.23665269
10	0x3eeb0c98	0.45908046
11	0x3e665781	0.22494318
12	0x3ecdb9de	0.40180868
13	0xbf09fd22	-0.53901875
14	0x3e91a9ba	0.28449804
15	0xbeb1e7c9	-0.3474715
16	0x3ec09a28	0.37617612
17	0xbf0cb989	-0.54970604
18	0xbe62fc6e	-0.22166607
19	0x3ec7f6e9	0.39055565
20	0x3f275f94	0.65380216
21	0x3f263cce	0.6493653
22	0x3f21310d	0.6296547
23	0xbf06920d	-0.52566606
24	0xbe81ac35	-0.25326696
25	0xbe87114a	-0.26380378
26	0x3ead80e8	0.3388741
27	0x3e8acd72	0.27109867
28	0x3e903b35	0.2817017
29	0xbf20784a	-0.62683547
30	0x3f338f88	0.70140886
31	0xbe4bac4b	-0.19889943
32	0x3f25411b	0.6455247
33	0x3aab5119	0.0013070434
34	0x3f0fbf76	0.5615152
35	0xbf24073f	-0.64073557
36	0xbecb5db6	-0.39719933
37	0x3e8d4912	0.2759481
38	0x3d4feca8	0.050762802
39	0xbee3a421	-0.44461158
40	0xbf08836b	-0.5332553
41	0x3f23a0e5	0.6391738
42	0xbdf369fa	-0.11885448
43	0xbebce933	-0.36896667
44	0xbd2a3522	-0.041554578
45	0xbf05c8c6	-0.5225948
46	0xbef9660c	-0.48710668
47	0x3e9d22ba	0.30690557
48	0xbe3700d5	-0.17871411
49	0xbf2722ed	-0.6528767
50	0x3e0397a2	0.12850812
51	0x3ed42b73	0.414394
52	0x3e1a462b	0.1506583
53	0xbe259c8b	-0.16172998
54	0xbee851b1	-0.45374826
55	0x3c464355	0.012101014
56	0x3d03cc40	0.03217721
57	0xbdd54a63	-0.10414579
58	0x3f0a0eef	0.53929037
59	0xbee129b4	-0.4397713
60	0xbd891b6b	-0.06694683
61	0xbc6dd14e	-0.014515234
62	0x3e94caf0	0.2906108
63	0xbe5e0673	-0.21682148
64	0x3e3c301c	0.18377727
65	0xbf2f2986	-0.68422735
66	0xbe3f4675	-0.18679221
67	0xbe7d399f	-0.24729012
68	0x3e910693	0.28325328
69	0x3ed78386	0.42092532
70	0x3e5f211f	0.21789978
71	0x3f00a6e7	0.5025467
72	0xbf25f7a6	-0.64831007
73	0xbd94a065	-0.07257155
74	0x3e72c19c	0.23706669
75	0xbf3206cb	-0.69541615
76	0xbeb28e19	-0.34874037
77	0x3f11bc81	0.5692826
78	0xbf15d17f	-0.5852279
79	0x3e87bc58	0.26510882
80	0x3f26d435	0.6516755
81	0x3d0dbac8	0.034601957
82	0x39c72b66	0.00037988572
83	0xbeadfee4	-0.3398353
84	0xbe843b3c	-0.25826442
85	0xbed7c085	-0.42139068
86	0x3ee228fb	0.4417189
87	0xbef0786a	-0.4696687
88	0x3f21bb04	0.6317599
89	0x3d06a794	0.03287466
90	0x3e00a4d8	0.12562883
91	0x3d09b545	0.033620138
92	0xbe2b8df6	-0.16753373
93	0xbf1b2c38	-0.6061435
94	0xbf1a1dc3	-0.6020166
95	0x3e98f607	0.29875204
96	0x3f30569c	0.68882155
97	0x3eae8fb9	0.34094027
98	0x3e9781bf	0.29591176
99	0xbf24d782	-0.6439134
100	0xbf0287d9	-0.5098854
101	0xbebf453f	-0.37357518
102	0x3efb353a	0.49064046
103	0xbf2e7a41	-0.68155295
104	0xbf2d7e9c	-0.67771316
105	0x3eb96d5e	0.36216253
106	0x3e041b52	0.12901047
107	0x3e9d94f1	0.30777696
108	0xbf099e48	-0.53757143
109	0x3ebb0440	0.3652668
110	0xbeb1fc43	-0.34762773
111	0xbe9e88f1	-0.30963853
112	0x3efb4fde	0.4908437
113	0x3ea56141	0.3230076
114	0x3c662458	0.014046751
115	0xbef9aba0	-0.48763752
116	0x3d631cbb	0.05544732
117	0xbf1e9d23	-0.6195852
118	0xbef6e1b7	-0.48219082
119	0x3f27cd09	0.65547234
120	0x3f0cf21f	0.5505695
121	0xbe03721b	-0.12836497
122	0xbed6d9b5	-0.41962972
123	0x3d49f702	0.04930783
124	0x3d39bb14	0.045344427
125	0x3e93ad93	0.28843364
126	0xbe34239b	-0.17591707
127	0x3f254e32	0.6457244
128	0xbe81136d	-0.25210133
129	0xbe8531e5	-0.2601463
130	0xbdb499f5	-0.088184275
131	0xbe57c9e1	-0.21073104
132	0x3de07ca2	0.10961272
133	0x3ece8e81	0.40343097
134	0xbdab146d	-0.08353505
135	0x3e474b87	0.19462405
136	0xbe69366e	-0.2277467
137	0xbe29c4a7	-0.16578923
138	0xbf243c30	-0.6415434
139	0x3f2fd463	0.6868345
140	0xbf224000	-0.63378906
141	0xbd9e2b93	-0.07723155
142	0xbed51679	-0.41618708
143	0xbf202e9e	-0.6257113
144	0x3e33d97d	0.17563434
145	0xbef82542	-0.48465925
146	0xbf016f37	-0.50560325
147	0xbf271957	-0.6527304
148	0xbd312461	-0.043247584
149	0xbd76510d	-0.06013589
150	0xbdc85c5c	-0.09783241
151	0x3ed4d069	0.41565254
152	0xbf0cef44	-0.5505259
153	0x3f217b75	0.63079005
154	0xbe9eb552	-0.3099771
155	0xbf18cf21	-0.59691054
156	0xbc0d67d7	-0.008630714
157	0xbf2e254c	-0.6802566
158	0x3f0f5189	0.5598379
159	0x3f34814c	0.7050979
160	0x3f21f142	0.63258755
161	0x3ef65ff7	0.4812009
162	0x3f0db217	0.5534987
163	0x3ebeb4b5	0.37247244
164	0x3f1ebeb5	0.62009746
165	0xbf015c66	-0.50531614
166	0xbf2885f3	-0.6582939
167	0x3e0410c2	0.12897018
168	0x3dabefef	0.08395373
169	0xbeca609c	-0.39526832
170	0xbf1322e7	-0.5747513
171	0x3ebbc2f4	0.36672175
172	0xbf19632c	-0.5991695
173	0xbe75ec0e	-0.24015829
174	0x3ed8c6ef	0.42339274
175	0xbf1fa543	-0.62361544
176	0xbd555274	-0.052080587
177	0xbc5dba8e	-0.013533248
178	0x3f115d6a	0.56783164
179	0x3f1c747b	0.61115235
180	0xbf11c565	-0.56941825
181	0x3e9f0fcb	0.31066737
182	0xbd0ad721	-0.03389657
183	0x3f02d1a1	0.5110112
184	0xbf301842	-0.68787014
185	0x3b94975d	0.0045346455
186	0xbe34fcb2	-0.1767452
187	0x3f047d52	0.51753724
188	0x3f07030e	0.52739036
189	0x3cae5480	0.021280527
190	0x3eaa485d	0.33258334
191	0xbf20aa58	-0.62759924
192	0xbf22fc64	-0.6366637
193	0x3f0e2917	0.5553145
194	0xbd3492a5	-0.044085164
195	0xbdb80567	-0.089854054
196	0xbe6e996b	-0.23300712
197	0xbf19153e	-0.5979804
198	0x3f03562c	0.5130336
199	0x3f045635	0.5169404
200	0x3b2be3f9	0.0026228412
201	0xbf2c641b	-0.6734025
202	0x3c0008a8	0.007814564
203	0xbeb80a25	-0.3594524
204	0x3ba36393	0.0049862354
205	0x3dfa3cb5	0.1221861
206	0xbe1dbe40	-0.15404606
207	0xbeac7a7a	-0.33687192
208	0xbe38332f	-0.17988275
209	0xbb93e962	-0.0045139054
210	0xbcb25dd1	-0.02177325
211	0x3f200629	0.625094
212	0xbede8211	-0.43458608
213	0x3eff9541	0.4991856
214	0xbf011d20	-0.50435066
215	0xbe2d874f	-0.16946147
216	0xbf0c156e	-0.547202
217	0x3dd81170	0.10550201
218	0xbea34865	-0.3189117
219	0x3e78f1cc	0.24310988
220	0xbe3e3ec2	-0.18578628
221	0xbf08ded4	-0.5346501
222	0xbd0be1e0	-0.034150958
223	0xbf303fed	-0.68847543
224	0x3f009a6d	0.50235635
225	0x3f035765	0.5130523
226	0xbeff249b	-0.49832615
227	0xbf163304	-0.58671594
228	0xbe4cfeed	-0.20019121
229	0xbed42bd6	-0.41439694
230	0x3e9a3188	0.30115914
231	0xbe67c065	-0.22631986
232	0x3e357886	0.17721757
233	0xbdb430c7	-0.08798366
234	0x3e45860c	0.19289416
235	0x3d0242c6	0.03180196
236	0xbe3a60b8	-0.18200958
237	0xbed587f7	-0.41705295
238	0x3e3f1d44	0.18663508
239	0x3ea51dc8	0.32249284
240	0xbe2b6879	-0.16739072
241	0x3e153e33	0.14574508
242	0xbe362681	-0.17788126
243	0xbf34fdbc	-0.7069967
244	0xbe25b189	-0.16181006
245	0x3f2b0c2c	0.6681545
246	0x3f0bdbae	0.5463208
247	0x3ef378ef	0.47553203
248	0x3ebdb0f8	0.3704908
249	0x3d2328a8	0.039833695
250	0x3d83c34f	0.064337365
251	0xbf2abcf3	-0.66694564
252	0xbf24c5f4	-0.6436455
253	0xbe9053e8	-0.28189015
254	0x3efd5d94	0.49485457
255	0xbef4fa03	-0.47846994

net.1.linear.weight f4 [256, 256]
0	0xb966a773	-0.00021996889
1	0xbb9a430b	-0.004707699
2	0xb88ee925	-6.814514e-05
3	0xbb90538c	-0.004404491
4	0x3b1265b5	0.0022338454
5	0xbb61b465	-0.00344398
6	0xbb3d13b3	-0.0028850853
7	0xbb5b7078	-0.0033483785
8	0xbaf7f20a	-0.0018916738
9	0x3b8a9150	0.0042287484
10	0x3b45f13a	0.0030203597
11	0xbb1a4ded	-0.0023544983
12	0x3b7ef43b	0.0038902897
13	0xbb8078d9	-0.003920656
14	0xbbbbf834	-0.005736375
15	0x3b936d8e	0.004499144
16	0x3b894c0c	0.0041899737
17	0x3b49dd8c	0.0030802218
18	0xbb2f2ed9	-0.0026730804
19	0x3b3254e2	0.0027211239
20	0xbb3227dc	-0.0027184403
21	0xbb66b14a	-0.0035200887
22	0xbafafbd6	-0.0019148539
23	0xbb1a2650	-0.0023521371
24	0xba4d77e4	-0.00078379945
25	0x3b279754	0.0025572376
26	0x3b1f8cfd	0.002434551
27	0x3a12b3d5	0.0005596255
28	0xba8e0297	-0.0010834512
29	0x3baf7024	0.0053539444
30	0xbb93f87c	-0.0045157056
31	0x3b0ca601	0.002146125
32	0x3bbb06d3	0.0057076006
33	0x3b617700	0.0034403205
34	0x3a1e3d3d	0.0006036347
35	0x3b0735a7	0.0020631345
36	0xb9e9b3bd	-0.0004457514
37	0x3b0a9fff	0.0021152494
38	0x3ae0713e	0.0017123593
39	0x3a4438a9	0.00074852497
40	0xbb11e7a9	-0.0022263324
41	0xba84243b	-0.0010081598
42	0x3b9bcd61	0.0047547077
43	0xb9cf881b	-0.00039583523
44	0xbb9c895f	-0.004777118
45	0xbb3c2096	-0.0028705946
46	0xbb05ddaf	-0.0020426323
47	0x3b662b1b	0.0035120908
48	0xbb1cb027	-0.0023908706
49	0xbba471e3	-0.005018459
50	0x3b15686a	0.0022797831
51	0x3b6044d0	0.0034220703
52	0xba9f634b	-0.0012160329
53	0xbb5ed451	-0.0034001062
54	0x3a28d778	0.0006440799
55	0xbacdace1	-0.0015691781
56	0x3b31d1c0	0.0027133077
57	0xbaa7b410	-0.0012794752
58	0x3a65e753	0.0008770127
59	0xbaab9e10	-0.0013093371
60	0xbbb7a99f	-0.005604937
61	0xbb07fc5c	-0.0020749783
62	0x3a5cc1d9	0.00084212195
63	0x3b961027	0.004579562
64	0xbb1f9cd0	-0.0024354942
65	0xbb1dfaa2	-0.0024105688
66	0x38f21c28	0.00011544704
67	0xbac5d37c	-0.0015092934
68	0xba1c7fb6	-0.0005969958
69	0xbb095f63	-0.0020961396
70	0xbbba1638	-0.005678918
71	0xbabeff05	-0.0014571851
72	0xba982202	-0.0011606815
73	0xbb311d5a	-0.0027025552
74	0x3b59a2a1	0.0033208507
75	0xbb94f0fd	-0.0045453296
76	0xbb3f5fc0	-0.0029201359
77	0xbb529c6d	-0.0032136694
78	0x3aab2114	0.0013056123
79	0xbb901deb	-0.0043980977
80	0x3b99d17c	0.004694162
81	0xbae81c91	-0.0017708709
82	0x3b0bb04b	0.0021314796
83	0x3aed7790	0.0018117297
84	0xbb5905cb	-0.0033115025
85	0xbaad6aa6	-0.0013230636
86	0x3b7efd3c	0.0038908264
87	0xbb5c629d	-0.0033628114
88	0x3a427ad4	0.00074188155
89	0x399ec195	0.00030280338
90	0x3bce178a	0.006289427
91	0x3b036a36	0.002005232
92	0x38e29ccf	0.00010805728
93	0xbb14f859	-0.0022731035
94	0x3b9429a4	0.0045215655
95	0xbb01e298	-0.0019818898
96	0x3b677be1	0.003532164
97	0xbbafe3cf	-0.005367733
98	0x3b6c1946	0.0036025806
99	0xba773acd	-0.0009431064
100	0x3bb3ddca	0.005489086
101	0xbb06c872	-0.0020566252
102	0xbae9e84f	-0.0017845723
103	0x3b345418	0.0027515944
104	0xbb97e24c	-0.004635131
105	0xbb5e3d19	-0.0033910929
106	0x3a32eca5	0.0006825424
107	0xbb3eec93	-0.0029132708
108	0xb92ce391	-0.00016487973
109	0xba51d975	-0.0008005121
110	0x39b13a36	0.0003380344
111	0x3b467657	0.0030282938
112	0xbb6e275e	-0.0036339383
113	0x3a90c4e8	0.0011045011
114	0xb9b2fbfd	-0.00034138552
115	0xba465ca7	-0.0007566907
116	0xbb09e16c	-0.0021038903
117	0xbb5dd16c	-0.003384675
118	0x3aaca1f1	0.0013170821
119	0x3bc12666	0.00589447
120	0xbbd7bfee	-0.006584159
121	0x3b24d04b	0.0025148566
122	0x3aeae6ae	0.0017921531
123	0x39a14c9a	0.00030765386
124	0xbaf010ed	-0.0018315591
125	0xbb84fbaf	-0.0040583233
126	0x3b28f5f8	0.0025781374
127	0xbbcba143	-0.0062142923
128	0xb91d173e	-0.00014981345
129	0xba700d94	-0.0009157297
130	0xba06c9da	-0.00051417726
131	0x3ab12ec3	0.0013517964
132	0xbb3286a5	-0.00272409
133	0x3b268c25	0.0025413122
134	0xb9f7ba8c	-0.000472505
135	0x3b7ce759	0.0038590042
136	0xbbbca99d	-0.005757524
137	0x3b994395	0.004677246
138	0x3abe2dff	0.0014509558
139	0xbb1054b5	-0.0022023146
140	0xb9923333	-0.00027885436
141	0x3b1773c4	0.0023109773
142	0x3b244271	0.0025064016
143	0x3ae032e4	0.001710501
144	0x3ace06f6	0.0015718627
145	0xba879d7d	-0.0010346618
146	0xba4131b3	-0.00073697715
147	0x38a7ee16	8.0075275e-05
148	0xbb9560fa	-0.0045586796
149	0x3900b69e	0.00012275061
150	0x39600e2f	0.00021367588
151	0xbaccdb42	-0.0015629309
152	0x399a2dc8	0.0002940728
153	0x37354b0e	1.0805916e-05
154	0xba63604e	-0.00086737133
155	0x3a5d1f5f	0.00084351556
156	0xba77a66a	-0.00094471
157	0xbb9c6a94	-0.0047734473
158	0x3b8452dd	0.0040381984
159	0x3b8661cf	0.004101015
160	0xbb305c33	-0.0026910424
161	0x3b824335	0.003975297
162	0x3b12ea4b	0.0022417482
163	0x39e8b485	0.00044384986
164	0x3abeadc1	0.0014547632
165	0x3b1639ec	0.0022922708
166	0x3b2162ac	0.0024625463
167	0xbb977a3e	-0.0046227267
168	0x3b541939	0.0032363667
169	0x3a5ccaec	0.00084225717
170	0xbae50f15	-0.0017475808
171	0xbc0274fe	-0.007962463
172	0xba93b581	-0.0011269302
173	0x3b9954db	0.004679305
174	0xbaf2a5bb	-0.0018512526
175	0x3ab64e8a	0.0013908905
176	0xbb5ab1de	-0.0033370177
177	0x3aa0778a	0.0012242657
178	0xb964ada8	-0.00021808466
179	0xbbab4e28	-0.005227823
180	0xbac121cb	-0.0014734803
181	0x3850e1a8	4.9801223e-05
182	0xbb26edf0	-0.0025471412
183	0xbb345bad	-0.0027520463
184	0xbba66245	-0.0050776326
185	0x39430c7f	0.00018601304
186	0x3a68a14e	0.0008874134
187	0xbb8c6a68	-0.0042851456
188	0x390dec95	0.00013534942
189	0xbb78cf83	-0.0037965483
190	0xb85b681b	-5.2310625e-05
191	0xbb5d185d	-0.0033736445
192	0x3be384f0	0.0069433376
193	0xbb9d42a6	-0.004799205
194	0x3a058eda	0.0005094834
195	0x3b5bfd81	0.0033567848
196	0x3ab7dd17	0.0014027682
197	0xbaa8f08b	-0.001288907
198	0xbad0d6fb	-0.001593321
199	0x3b7d1f82	0.0038623516
200	0x3aed8e56	0.0018124084
201	0x3907297e	0.0001289006
202	0x3b7f47e4	0.0038952762
203	0xbb43c3f2	-0.0029871431
204	0xbb807e60	-0.003921315
205	0xbb304d69	-0.0026901609
206	0xbb174844	-0.0023083845
207	0x3b6f3f66	0.0036506294
208	0xbac9167c	-0.0015341784
209	0x3b839517	0.0040155756
210	0x3b783cae	0.0037877965
211	0xbb86ee36	-0.0041177524
212	0xbb29b41f	-0.0025894714
213	0x390c8878	0.00013402279
214	0x3aa9f376	0.0012966234
215	0xbb28dd34	-0.0025766613
216	0xbb2f1c2b	-0.002671967
217	0xbb28f3f4	-0.0025780173
218	0x3b9f8be6	0.004868972
219	0x3b21a443	0.0024664558
220	0xbb52d410	-0.0032169856
221	0xbbe300f5	-0.0069276043
222	0xbad15b3b	-0.0015972623
223	0x39a601a5	0.00031663213
224	0x3b0b4503	0.002125085
225	0x3ae838b8	0.0017717099
226	0x3ba8c117	0.005149971
227	0x3a5c0030	0.0008392362
228	0x3b1b3a31	0.0023685808
229	0xbb826fd8	-0.003980618
230	0xbaee49ca	-0.001817995
231	0xbbaa6755	-0.0052003064
232	0xbaf08a00	-0.0018351674
233	0x3b0ba3f9	0.0021307452
234	0xbbca4dd7	-0.00617383
235	0x37a3e85c	1.9539315e-05
236	0xb9c44fd9	-0.00037443524
237	0x3a59bc69	0.00083059684
238	0xbb1b1a70	-0.002366688
239	0x3ae8196f	0.0017707775
240	0x3bdb8bb9	0.006700006
241	0x3b028206	0.0019913926
242	0xbb95c3da	-0.0045704665
243	0x3ba63c66	0.005073118
244	0x3a775838	0.0009435448
245	0xbac16782	-0.0014755579
246	0xb9991ee4	-0.0002920545
247	0xbaebc8ff	-0.0017988979
248	0x3bc89023	0.006120698
249	0x3b83f321	0.004026786
250	0xb8061bc2	-3.197394e-05
251	0x3b3c739b	0.002875543
252	0xbbeaabec	-0.007161608
253	0xb9e76180	-0.00044132397
254	0x3b467501	0.0030282142
255	0x3b339b28	0.0027405713

net.1.linear.bias f4 [256]
0	0x3caeeb8b	0.02135255
1	0x3d1e126f	0.0385918
2	0x3d1192aa	0.03554026
3	0xbb8fb3f7	-0.004385467
4	0xbd013ac3	-0.03155018
5	0x3d0f7f4c	0.03503351
6	0xbafdc163	-0.0019360002
7	0x3d10ada4	0.035321847
8	0x3ce0a46a	0.027422149
9	0x3d73a918	0.059487432
10	0x3d450ab9	0.04810593
11	0x3d0aca94	0.0338846
12	0x3c4f91e1	0.012669058
13	0x3b041d4c	0.0020159064
14	0xbcea4a2a	-0.028599817
15	0xbaea3aa6	-0.0017870262
16	0x3c9dc98c	0.019261144
17	0xbc8cd9c8	-0.01719369
18	0xbc08827e	-0.008331893
19	0x3bca44d1	0.0061727543
20	0xbd3c3506	-0.045949005
21	0xbcf943b0	-0.030427784
22	0x3d002754	0.031287506
23	0xbccc8ed8	-0.024970457
24	0xbd1d5556	-0.03841146
25	0x3d29e3b2	0.041476913
26	0xbc7fe158	-0.015617691
27	0xbbdfc105	-0.0068284296
28	0x3bd84f22	0.0066012302
29	0xbd12f7df	-0.03588092
30	0x3d0ef105	0.034897823
31	0xbcd1da26	-0.025616717
32	0x3d546c5b	0.05186115
33	0x3d6bc5e1	0.05756176
34	0x3d7d76a9	0.06188074
35	0xbc9d88ad	-0.019230211
36	0xbd66cd8d	-0.056348372
37	0xbc4323a7	-0.011910356
38	0xbd233c95	-0.039852697
39	0x3c92acb1	0.017904611
40	0xbd671f18	-0.056426138
41	0xbc2e1bf2	-0.01062678
42	0x3c0d5406	0.00862599
43	0x3d5d9700	0.054099083
44	0x3bd867c1	0.0066041653
45	0x3d1eeed8	0.038801998
46	0x3c865099	0.016395854
47	0xbcaf54ea	-0.021402795
48	0xbc6e07d5	-0.0145282345
49	0xbd030510	-0.03198725
50	0x3d3e61f3	0.04648013
51	0xbd0b34ce	-0.033985905
52	0x3cb94607	0.0226164
53	0xbca2454b	-0.019808432
54	0x3d1a428d	0.037661124
55	0xbcebc19e	-0.028778847
56	0x3b2d93df	0.0026485843
57	0x3cacbc11	0.02108577
58	0x3c7c6f96	0.015407464
59	0x3d395fc7	0.045257356
60	0x3d57e2b1	0.052706424
61	0xbcc35ae2	-0.023847047
62	0xbc892324	-0.01674039
63	0xbd15609c	-0.036469087
64	0xbd115e1b	-0.035490137
65	0xbbd3f317	-0.0064681876
66	0xbd1d674a	-0.038428582
67	0xbd5a9e27	-0.053373482
68	0x3bc78c0a	0.006089692
69	0x3d78442d	0.060611892
70	0x3d765e5a	0.060148574
71	0xbd7170e3	-0.058945548
72	0xbcb0cd24	-0.021582194
73	0x3d813e7f	0.06310748
74	0xbd80a977	-0.06282323
75	0xbd7f2678	-0.062292546
76	0x3cdcd1f9	0.026955592
77	0xbceb4627	-0.028719975
78	0xbbb9b2cb	-0.0056670657
79	0x3cefb60d	0.029261613
80	0x3ce07fd1	0.027404698
81	0xbce0154c	-0.027353905
82	0x3d1c77a9	0.038200054
83	0xbb3fa680	-0.002924353
84	0xbd0cf941	-0.034417395
85	0xbc8f0cb7	-0.017462118
86	0x3c9cb535	0.019129375
87	0xbd4c1047	-0.04982021
88	0x3cace220	0.021103919
89	0x3aaf52fc	0.0013376172
90	0xbbc3815d	-0.005966349
91	0xbc4aaef1	-0.012370811
92	0x3d667043	0.056259405
93	0x3b50e6e2	0.0031875898
94	0x3c9d6282	0.019212011
95	0xbc1c6d70	-0.009547576
96	0xbd55698c	-0.05210261
97	0xbd79e663	-0.06101073
98	0x3c05cb8a	0.008166203
99	0xbd719675	-0.058981378
100	0x3d049924	0.03237261
101	0xbd41bf02	-0.0473013
102	0xbd3730a1	-0.04472411
103	0x3bd0897b	0.006364045
104	0x3d345d12	0.04403407
105	0xbcdc77b9	-0.026912557
106	0x3cdf914e	0.027290966
107	0x3c394d08	0.01130987
108	0xbc72934d	-0.014805627
109	0x3d36e923	0.04465593
110	0xbb6a8c57	-0.0035789215
111	0x3c5dad78	0.013530128
112	0xbd14d03f	-0.03633141
113	0x3cee66b5	0.029101709
114	0x3c889086	0.016670477
115	0xbc7e0860	-0.015504926
116	0xbc4f3387	-0.012646562
117	0x3d0e49f2	0.03473849
118	0x3ce68b20	0.028142512
119	0xbca08b5b	-0.0195977
120	0x3cc0fe3c	0.023558728
121	0xbc9603a7	-0.018312288
122	0x3d74ccda	0.059765674
123	0xbc800e0c	-0.015631698
124	0xbc276c5e	-0.010218708
125	0xbc017764	-0.007902
126	0xbb0a7e17	-0.0021132284
127	0x3d45ee2f	0.048322853
128	0x3d6cb5f7	0.057790723
129	0xbd5be364	-0.053683653
130	0xbd50ae3f	-0.050947424
131	0x3d4fa50f	0.05069452
132	0x3ba7ef85	0.0051249885
133	0xbcc31e4c	-0.023818158
134	0xbd36c062	-0.044617064
135	0x3d0836d1	0.033255402
136	0xbb4e8197	-0.0031510347
137	0xbd18142a	-0.037128605
138	0x3d0185ff	0.03162193
139	0xbcde2b16	-0.027120154
140	0x3d0c893e	0.03431057
141	0xbd03750a	-0.03209404
142	0x3d2d453a	0.042302348
143	0x3ce6190d	0.028088117
144	0x3d75dacf	0.060023125
145	0xbc4bd92d	-0.012441915
146	0xbc3ec154	-0.011642773
147	0x3d7a376d	0.061088014
148	0xbc7fd05d	-0.0156136425
149	0xbc8bc4e2	-0.017061654
150	0x3d811113	0.06302085
151	0x3cbce043	0.023056155
152	0xbd0e5f36	-0.03475877
153	0x3d827126	0.063692376
154	0x3d51e27d	0.051241387
155	0x3c45f9fc	0.012083527
156	0xbd06c0a8	-0.032898575
157	0xbc9eaedc	-0.019370489
158	0x3d0d555c	0.034505233
159	0xbd4ca14a	-0.049958505
160	0xbc4d477e	-0.012529252
161	0x3d4bf302	0.049792297
162	0x3aa9ebc4	0.001296394
163	0x3cf8eaae	0.030385341
164	0x3d03fb15	0.032221872
165	0x3bd17c9b	0.006393028
166	0x3d3434ca	0.043995656
167	0xb91dee30	-0.00015061419
168	0x3c2821e8	0.01026199
169	0x3d1dfc89	0.038570914
170	0x3d3bffcf	0.045898255
171	0x3d3584be	0.044316046
172	0x3d2abf59	0.04168639
173	0x3ae34684	0.0017339741
174	0x3cd61849	0.026134627
175	0xbcb3e9f6	-0.021962147
176	0x3d18606c	0.03720133
177	0xbd7fee48	-0.062483102
178	0x3c86c202	0.016449932
179	0xbd58b99b	-0.052911382
180	0xba81159b	-0.0009848358
181	0xbcc56615	-0.024096528
182	0xbc6b995b	-0.0143798245
183	0x3b387411	0.0028145353
184	0x3c946e09	0.018118875
185	0x3af534c2	0.001870774
186	0x3cc8fbaf	0.024534075
187	0x3d7f0ade	0.062266223
188	0x3d2f55d2	0.042806454
189	0xbd0c49f1	-0.034250204
190	0x3d6a52ea	0.05720798
191	0x3c4f75d8	0.0126623735
192	0xbc2846e3	-0.010270807
193	0x3d090771	0.033454362
194	0xbd74711c	-0.059678182
195	0x3d318b9f	0.043346044
196	0x3c9f29de	0.019429144
197	0xbcd34585	-0.025789985
198	0xbcbe3015	-0.023216287
199	0xbd34ddd5	-0.044156868
200	0xbb84e8ad	-0.0040560574
201	0xbd1f1096	-0.038834177
202	0xbd62c94f	-0.055367764
203	0xbc808fb6	-0.015693527
204	0xbd0463ac	-0.032321617
205	0x3d7fadba	0.062421538
206	0x3c1ba6c2	0.009500207
207	0xbb158242	-0.0022813235
208	0xbcf39f2f	-0.02973899
209	0xbd05035b	-0.032473903
210	0x3d7ead2a	0.06217686
211	0xbc9827bd	-0.018573636
212	0xbd7b63ae	-0.06137436
213	0xbcbc4167	-0.022980405
214	0xbc3a120a	-0.01135684
215	0x3d26a466	0.040684126
216	0xbd39c145	-0.04535033
217	0x3d4c19b2	0.049829192
218	0x3c1ce3eb	0.009575824
219	0xbc984dfb	-0.018591871
220	0xbc2e0d4e	-0.010623289
221	0xbc68e566	-0.014214849
222	0x3cafc0e9	0.021454291
223	0x3c05d132	0.008167552
224	0x3d07e980	0.033181667
225	0x3d59de65	0.053190608
226	0xbc4010b8	-0.011722736
227	0x3d00b8b7	0.031426158
228	0xbc6bcfc9	-0.014392802
229	0xbd100600	-0.035161972
230	0xbd6ba745	-0.057532568
231	0x3b649a8d	0.0034882159
232	0x3cf02a48	0.029317036
233	0x3b9032a5	0.0044005685
234	0x3b80b8c5	0.0039282762
235	0x3d03b11b	0.032151323
236	0xbbd32555	-0.0064436593
237	0x3d125452	0.035724945
238	0x3d3af152	0.045640297
239	0xbd4a3c67	-0.04937401
240	0x3ca3a477	0.019975884
241	0xbd02738e	-0.031848483
242	0x3ca98117	0.020691438
243	0x3d725ac3	0.05916859
244	0xbca34d3a	-0.019934285
245	0xbd05318a	-0.032517947
246	0xbd4c1282	-0.049822338
247	0xbd22e7e1	-0.03977192
248	0xbc781c47	-0.015143461
249	0xbcdc0564	-0.02685804
250	0xbb92fd50	-0.0044857636
251	0x3d0c6bdd	0.034282554
252	0x3c58dc3a	0.0132361
253	0xbc5e718b	-0.013576875
254	0x3d3b1510	0.045674384
255	0x3c0e9316	0.00870206

net.2.linear.weight f4 [256, 256]
0	0xbb197a00	-0.0023418665
1	0x39ca20de	0.0003855293
2	0x3b36c38a	0.0027887546
3	0xbafdac60	-0.001935374
4	0x39ace627	0.00032977873
5	0xba4e1d26	-0.000786262
6	0x38c82335	9.543301e-05
7	0xbb115429	-0.0022175408
8	0xbb8653d3	-0.004099348
9	0xbb02560d	-0.0019887716
10	0xbba3c53c	-0.0049978774
11	0xbb94eb95	-0.004544685
12	0x3ae6e1c0	0.0017614886
13	0x3b1c5052	0.0023851586
14	0xbb802442	-0.0039105723
15	0xba720e57	-0.0009233704
16	0x3b852d83	0.0040642633
17	0x3b503e29	0.0031775332
18	0xbb91125e	-0.0044272384
19	0xbba5ce6c	-0.005060008
20	0xbaaa6871	-0.0013001097
21	0xbb551f3d	-0.003251984
22	0xbb8c31bf	-0.004278391
23	0xbb807e57	-0.003921311
24	0xbb9f3dc0	-0.004859656
25	0xbae4434d	-0.0017415077
26	0xbb658bbb	-0.0035025913
27	0x3b28afb2	0.0025739488
28	0xbb36b0e7	-0.0027876438
29	0xbb64bd66	-0.003490293
30	0xba6b3983	-0.00089731085
31	0xbb09fe3d	-0.002105608
32	0xbb9a49ea	-0.0047085183
33	0xbb69894a	-0.003563481
34	0xba28fdd0	-0.00064465124
35	0xba7d90f4	-0.0009672784
36	0x3aba9bcb	0.0014237104
37	0xbb5e23af	-0.003389578
38	0xbb959cd8	-0.0045658164
39	0xbb382bbe	-0.0028102244
40	0xbb4d5126	-0.0031328886
41	0xbb6bac73	-0.0035960942
42	0x3be96f2a	0.0071238475
43	0xbb81f48e	-0.003965921
44	0x3b7b5636	0.0038350946
45	0xbb845f04	-0.004039647
46	0x3ad0ef5b	0.0015940474
47	0x3b6f18b2	0.0036483225
48	0xbbb64464	-0.005562352
49	0xbb915230	-0.0044348463
50	0xb99971c5	-0.000292672
51	0x3a71348f	0.0009201252
52	0xbac1a8ea	-0.0014775072
53	0x3b8fc1f7	0.004387136
54	0xb9e4f9af	-0.00043673578
55	0x3abdff2b	0.0014495602
56	0x3b70c9a1	0.0036741274
57	0xbb812223	-0.003940837
58	0xbaca6a31	-0.0015443024
59	0xb9e1761c	-0.00043003343
60	0x3b19123c	0.0023356816
61	0xbab71659	-0.0013968452
62	0x3b1a063c	0.002350225
63	0x3bae96e0	0.0053280443
64	0xbb3a5f86	-0.0028438284
65	0x3a5a3006	0.0008323196
66	0x3b8f973a	0.0043820413
67	0xba483188	-0.0007636775
68	0xbaa3ce52	-0.0012497401
69	0xbbb2e593	-0.0054594963
70	0xbb9b40aa	-0.004737933
71	0xbb29769c	-0.002585805
72	0xba7e066c	-0.0009690288
73	0x3b90fbd2	0.0044245506
74	0x3b8e7e1e	0.0043485304
75	0xba791bd7	-0.00095027447
76	0xbad9059c	-0.0016557458
77	0xbba0b460	-0.004904315
78	0xbb9179fb	-0.00443959
79	0xbb5d4cf5	-0.0033767794
80	0xbba736b5	-0.005102957
81	0xbb12edae	-0.00224195
82	0xbb8f29ec	-0.004369011
83	0x3b11256b	0.0022147547
84	0xbae3428e	-0.001733856
85	0x3a78299a	0.00094666483
86	0x3b77ec6a	0.0037830123
87	0xba3e0729	-0.0007248992
88	0x3ae2880c	0.0017282977
89	0xbb1051f1	-0.0022021497
90	0x3b3dfb1e	0.0028988789
91	0x3ba31c85	0.004977765
92	0xbb571ab9	-0.0032822324
93	0x3b799bbe	0.0038087214
94	0x3b5263b4	0.0032102885
95	0x3a8829ce	0.0010388435
96	0x3b75f8b0	0.0037532263
97	0xb9c69014	-0.0003787285
98	0xbb047417	-0.0020210797
99	0xba85490f	-0.0010168868
100	0x3b11abb6	0.0022227592
101	0xbaa2a881	-0.0012409837
102	0xb9fd71dd	-0.00048340755
103	0x3bc76580	0.006085098
104	0x3b9c5a39	0.0047714976
105	0xbb9b6d72	-0.0047432715
106	0x3b52f0f6	0.003218708
107	0xbba275c9	-0.0049578887
108	0xba373f59	-0.00069903355
109	0x3a2dba7f	0.00066272164
110	0xbae1f7c0	-0.0017239973
111	0xbb09db01	-0.0021035078
112	0x3b31b7d1	0.002711762
113	0x3ab31ca2	0.001366515
114	0x3b0d55c4	0.0021566013
115	0xbb9d83cb	-0.0048069707
116	0xbb945020	-0.004526153
117	0x3aeea2b3	0.0018206447
118	0x3b7c8993	0.003853415
119	0x3b7e2bdd	0.0038783469
120	0x3ae7df86	0.0017690517
121	0x3afb3718	0.00191662
122	0xbb5673fa	-0.0032722936
123	0x3ad6f17b	0.0016398871
124	0xbb3fbdc5	-0.0029257399
125	0x394f9ccf	0.00019799474
126	0x3b608470	0.0034258626
127	0xbb36652e	-0.0027831304
128	0xba5c93ca	-0.0008414356
129	0xbb45d9d2	-0.0030189645
130	0x3b35c00c	0.0027732877
131	0x39afa373	0.0003350038
132	0xbba0121f	-0.0048849727
133	0x3ab916a5	0.0014121128
134	0x3b637c4f	0.0034711545
135	0xbaeabead	-0.0017909609
136	0x3b0a5598	0.0021108147
137	0xbb6cfd5e	-0.003616176
138	0x3ba66625	0.0050780945
139	0xb92ba90f	-0.0001637081
140	0x3b07254d	0.0020621598
141	0xbb2ace94	-0.0026063072
142	0x3b8701c3	0.004120083
143	0x3b03bf30	0.002010297
144	0xbaab10d1	-0.0013051276
145	0x3bc244de	0.0059286198
146	0xbba6c90f	-0.005089886
147	0x3b63588e	0.0034690234
148	0x3b764195	0.003757571
149	0x3b3a00d6	0.0028381846
150	0xba2d95d9	-0.00066217553
151	0x3b8464aa	0.0040403204
152	0xbad74d22	-0.0016426186
153	0xbb86b3b0	-0.004110776
154	0x3bae5dba	0.0053212317
155	0x3b7cfaa1	0.0038601535
156	0x3b0ab294	0.002116357
157	0x3b87c71f	0.00414361
158	0x3bced191	0.0063116034
159	0xbb74351a	-0.0037263096
160	0xbbd50d1b	-0.0065018064
161	0x3a0399dd	0.0005020181
162	0x3ae8503d	0.0017724108
163	0xbb21fc4d	-0.0024717033
164	0x39a54805	0.0003152491
165	0xbb3419fa	-0.0027481304
166	0xbb96d1e0	-0.004602656
167	0xbb0e8125	-0.0021744457
168	0xbb83d71f	-0.004023447
169	0x3a550107	0.0008125458
170	0x3a9d4387	0.0011998274
171	0xbb3c6d61	-0.0028751718
172	0x3b7607bc	0.003754123
173	0x3b85e116	0.00408567
174	0xbba5a726	-0.005055326
175	0x38ebe713	0.00011248714
176	0x39ffc98d	0.00048787557
177	0x3b949695	0.0045345523
178	0xbb32e7cb	-0.0027298804
179	0xbb68f9be	-0.0035549249
180	0xbb452d85	-0.0030086946
181	0x3b798b66	0.0038077473
182	0xba6bcf93	-0.00089954695
183	0xbb3ac460	-0.0028498396
184	0x3aa89535	0.001286185
185	0x3ad8d673	0.0016543403
186	0xbb940d45	-0.0045181834
187	0x3b0b8a39	0.0021292104
188	0x39e0d2ff	0.00042881814
189	0xbb45ed20	-0.0030201152
190	0xbb8504dc	-0.004059417
191	0xbb883dae	-0.0041577434
192	0x3b5fbe0b	0.0034140374
193	0x3b464256	0.0030251942
194	0xb8a5d256	-7.906991e-05
195	0x3b48e227	0.0030652375
196	0x3bad132f	0.005281828
197	0xbb932517	-0.0044905054
198	0x3b10f5d1	0.0022119174
199	0xbab23888	-0.001359717
200	0xbbcff7fd	-0.006346701
201	0x39ffad3e	0.00048766466
202	0xb9e3d338	-0.00043454184
203	0xbb8ae251	-0.004238405
204	0xbb4552c2	-0.0030109142
205	0xbb4c49a6	-0.0031171828
206	0xbb683c7c	-0.0035436442
207	0xba4c199a	-0.00077857974
208	0xbaa76057	-0.00127698
209	0x3b935be4	0.004497038
210	0xbb9000ae	-0.0043946123
211	0xbb8e62a0	-0.004345253
212	0xbbb1f05e	-0.0054302653
213	0x3aa9d3b4	0.0012956769
214	0xb9d198dc	-0.00039977476
215	0xbb37eb92	-0.0028063995
216	0x3a931a36	0.0011223021
217	0xbb60beb6	-0.003429336
218	0x3b51fcbc	0.003204151
219	0x3b4e7ce3	0.0031507544
220	0xbb996ad6	-0.0046819253
221	0xbac7e3eb	-0.001525042
222	0x3bb2b7af	0.0054540257
223	0xbb0c3653	-0.0021394684
224	0x383970c0	4.4212444e-05
225	0x3b368e7e	0.0027855928
226	0x3baf71e1	0.0053541516
227	0x3b4ead56	0.0031536422
228	0x3a44c092	0.0007505502
229	0x3b85326c	0.0040648486
230	0xbbbef5ef	-0.0058276574
231	0xbb918633	-0.0044410466
232	0x3bb000f0	0.0053712055
233	0xbb319357	-0.0027095878
234	0x3b74a437	0.0037329325
235	0xbb719a4a	-0.0036865645
236	0xbb9dc85b	-0.004815144
237	0xbb7a02c5	-0.0038148623
238	0x3b2d0df0	0.0026406012
239	0x3b846c29	0.004041214
240	0xbb0bb854	-0.0021319585
241	0xbb5fc580	-0.0034144819
242	0x3bba61de	0.005687936
243	0x3a8b2906	0.0010617084
244	0xbb66ee40	-0.0035237223
245	0xbb1aa1f5	-0.002359507
246	0x3b7ee7d7	0.0038895512
247	0xb9a9d14c	-0.0003239013
248	0x3acb8c1b	0.0015529426
249	0x3b6e9273	0.0036403209
250	0x3bc5107c	0.006013928
251	0x3b72e31a	0.0037061633
252	0x3b2b3ac1	0.002612755
253	0xba0960bf	-0.00052405515
254	0x3aa99221	0.0012937227
255	0x3b7eb9c3	0.0038868047

net.2.linear.bias f4 [256]
0	0x3be5f997	0.007018279
1	0xbd1e4ec1	-0.038649324
2	0xbd251775	-0.040305573
3	0xbd0365f7	-0.032079663
4	0x3cd11f17	0.02552752
5	0x3d171608	0.036886245
6	0x3d34f44e	0.0441783
7	0x3d753cfa	0.059872605
8	0x3d4161f9	0.047212575
9	0xbd309307	-0.043108966
10	0x3cf00cb7	0.029302938
11	0x3c37a1e4	0.011208031
12	0xbd56d920	-0.05245316
13	0xbc168f67	-0.009189463
14	0xbd63ad4c	-0.05558519
15	0x3d72c198	0.059266657
16	0xbd2a83d9	-0.041629646
17	0xbc7b5b01	-0.015341521
18	0x3d5b6213	0.053560328
19	0xbcb8703b	-0.022514453
20	0x3d57d12c	0.052689716
21	0xbd17df8f	-0.037078436
22	0xbd75aee0	-0.059981227
23	0x3d43fa6e	0.04784625
24	0xbd744ff4	-0.05964656
25	0xbc4fe978	-0.012689941
26	0xbcf90750	-0.030398995
27	0x3c03b2d5	0.008038242
28	0x3d040d94	0.03223951
29	0xbd3ff1c7	-0.046861436
30	0xbccf07d8	-0.025272295
31	0xbd1e8bdf	-0.03870761
32	0x3cc9ec22	0.02464873
33	0x3c83c2ed	0.016084159
34	0xbd2996cf	-0.041403588
35	0x3c2b5bfc	0.0104589425
36	0x3d56d640	0.05245042
37	0x3956e36d	0.00020493353
38	0x3d53cc7b	0.05170868
39	0x3cc6f362	0.024285976
40	0x3d36300b	0.04447941
41	0x3c3ab032	0.011394547
42	0xbca77755	-0.020442644
43	0xbd0a4f64	-0.03376712
44	0xbd455734	-0.048178867
45	0x3cae6c59	0.021291899
46	0xbc4186ab	-0.0118118925
47	0x3d4493df	0.047992583
48	0xbcf0d5fb	-0.029398909
49	0x3c55f083	0.013057831
50	0xbd62c742	-0.05536581
51	0x3c9a9f63	0.01887483
52	0x3d19ee16	0.037580572
53	0xbd67a139	-0.05655024
54	0xbcd30918	-0.025761172
55	0x3cb98b34	0.022649385
56	0x3bf8a91e	0.0075885197
57	0xbd0c5cd7	-0.034268226
58	0x3b3b7e34	0.0028609158
59	0x3c4e7275	0.012600531
60	0xbc146fb1	-0.009059832
61	0x3cdc10e9	0.026863532
62	0xbce7e860	-0.028309047
63	0xbd19ed82	-0.03758002
64	0xbd4707d8	-0.048591465
65	0xbcd332d8	-0.02578108
66	0xbd62847e	-0.055302136
67	0xbcb7d511	-0.022440465
68	0xbbc24ca2	-0.0059295455
69	0xbd36d870	-0.044640005
70	0xbd4a1690	-0.049337924
71	0x3b5f8f1d	0.0034112402
72	0xbd466f79	-0.048446152
73	0xbc389844	-0.011266772
74	0xbcd233ca	-0.02565946
75	0x3d6c66ac	0.057715103
76	0x3cd5bd5b	0.026091268
77	0x3d657b56	0.056025825
78	0xbc5e9cf7	-0.013587228
79	0xba0cd098	-0.0005371659
80	0xbd30bd59	-0.043149326
81	0x3b761439	0.0037548675
82	0x3cf27aaf	0.029599516
83	0x3bac2b6f	0.005254201
84	0x3d3d6818	0.04624185
85	0x3d00742e	0.031360798
86	0x3c2c34da	0.010510648
87	0x3ce17e6d	0.027526105
88	0xbcfe4b71	-0.031041833
89	0x3d11b11a	0.035569288
90	0x3d54ebfb	0.05198286
91	0xbd20e113	-0.039277148
92	0x3d41d5d2	0.047323056
93	0x3d72db07	0.059290912
94	0xbc0046e2	-0.0078294
95	0x3cc57fb6	0.024108749
96	0xbb9b4e89	-0.0047395867
97	0xbd463d99	-0.048398588
98	0xbd59b6a5	-0.0531527
99	0xbd3c7c6b	-0.04601709
100	0x3b94a663	0.0045364364
101	0x3c25cd33	0.010119724
102	0x3d3126fc	0.04325007
103	0x3cc24aa4	0.023717232
104	0x3bd2b543	0.0064302995
105	0xbbbb9a80	-0.005725205
106	0xbb89fea5	-0.004211264
107	0x3c0ef663	0.008725735
108	0x3d3794a6	0.044819497
109	0x3d1d6691	0.038427893
110	0x3d1ff0fa	0.039048173
111	0x3c2118ee	0.009832604
112	0xbd217a8f	-0.03942352
113	0xbb9ae609	-0.0047271294
114	0x3d06fa69	0.032953653
115	0xba1beb80	-0.0005947873
116	0xbd8148ef	-0.06312739
117	0x392d6528	0.0001653625
118	0xbd115224	-0.035478726
119	0x3d791c36	0.06081792
120	0xbd5154a9	-0.05110613
121	0xbc85d822	-0.016338412
122	0x3d646bff	0.055767056
123	0xbd3e8f7a	-0.04652355
124	0x3d39036e	0.045169286
125	0xbd01f89e	-0.03173124
126	0xbd1f1a4f	-0.03884345
127	0xbd180b5c	-0.03712021
128	0x3cee8737	0.02911721
129	0x3d373a67	0.04473343
130	0x3d5cc348	0.053897172
131	0x3d53f867	0.051750567
132	0x3cf8a333	0.030351257
133	0xbd4d1a22	-0.05007375
134	0x3c1db969	0.009626725
135	0xbd51edda	-0.051252224
136	0x3b14b185	0.0022688818
137	0xbd217c24	-0.03942503
138	0xbc0b80b8	-0.008514576
139	0xbc9e26b2	-0.01930556
140	0x3d606718	0.054785818
141	0xbd02cc23	-0.03193296
142	0xbb90d4ac	-0.0044198837
143	0xbd302ebe	-0.043013327
144	0xbbc6abe1	-0.00606297
145	0x3c285ac7	0.010275549
146	0x3c404d3b	0.011737163
147	0xbd42ab4f	-0.047526654
148	0x3d7b95d4	0.061422184
149	0x3c030a43	0.007998052
150	0xbd6c59ca	-0.057702817
151	0x3d771d4b	0.06033067
152	0xbbd812f1	-0.006594055
153	0x3d66ae66	0.056318663
154	0x3c050c2f	0.008120581
155	0xba41ecbe	-0.0007397643
156	0x3c2a384a	0.010389397
157	0xbd1248e4	-0.035714045
158	0x3c287454	0.010281641
159	0xbcf91fbe	-0.030410644
160	0xbc60fbc2	-0.013731899
161	0x3d001eb2	0.031279273
162	0xbbee18e7	-0.007266152
163	0x3d5a5e46	0.053312562
164	0x3c8538cd	0.016262436
165	0x3d3ef9b1	0.046624843
166	0xbacaa804	-0.001546145
167	0xbcb9bb70	-0.022672385
168	0x3d636afe	0.055521958
169	0x3bd6de4d	0.006557262
170	0xbc8b8614	-0.017031707
171	0xbd4dfc94	-0.050289705
172	0x3cd2b7a6	0.025722336
173	0xbcde4878	-0.027134165
174	0x3d38412e	0.044984035
175	0x3d05f2be	0.0327022
176	0xbd666eab	-0.056257885
177	0x3caf7181	0.021416428
178	0x3c6ae688	0.0143371895
179	0x3d0327d8	0.03202042
180	0xbd0eb313	-0.034838747
181	0xbc8082d7	-0.01568739
182	0xbcc533d3	-0.024072563
183	0x3ca2dc0c	0.019880317
184	0xbccc4c46	-0.024938714
185	0x3d347904	0.044060722
186	0x3cd6770c	0.026179813
187	0xbc1d3f3c	-0.009597596
188	0x3d614400	0.05499649
189	0x3b9427d3	0.004521349
190	0x3d6d50b4	0.057938293
191	0xbb865550	-0.0040995255
192	0xbd211b9e	-0.03933298
193	0xbd5828e7	-0.052773383
194	0xbc50894d	-0.012728048
195	0x3c3ffc58	0.011717878
196	0xbcf22748	-0.029559746
197	0xbc6975a6	-0.014249241
198	0xbbde22f1	-0.0067790677
199	0xbd10b939	-0.035332892
200	0x3c9b20e8	0.01893659
201	0x3af99534	0.0019041658
202	0x3d39665f	0.045263644
203	0x3d690959	0.05689368
204	0x3c785eb3	0.015159297
205	0x3d178f9f	0.037002202
206	0x3d39592c	0.045251057
207	0xbbb6fc61	-0.005584285
208	0x3ce52eba	0.027976383
209	0xbd702bb0	-0.058635414
210	0x3bdbbc24	0.0067057777
211	0x3d43b645	0.047781248
212	0xbc3af2c0	-0.011410415
213	0x3bb883c9	0.0056309444
214	0xbd5b303f	-0.053512808
215	0x3d57afe1	0.052657966
216	0xbd5df6de	-0.05419051
217	0x3d623673	0.055227708
218	0xbc58d45e	-0.013234226
219	0x3c60041e	0.013672857
220	0x3c5b75d1	0.013394789
221	0x3b9182b4	0.00444063
222	0xbc5257ce	-0.012838317
223	0x3d5eadc3	0.05436493
224	0xbbf80ae9	-0.00756966
225	0x3c6a420e	0.014297975
226	0x3c8d797d	0.017269844
227	0xbd6f58d9	-0.05843434
228	0xbcd90d6e	-0.026495662
229	0xbd783fcb	-0.060607713
230	0xbd6b4507	-0.057438876
231	0x3d5b0389	0.05347017
232	0x3d6a3614	0.05718048
233	0x3d137eb6	0.036009513
234	0xbc4e26b7	-0.0125824725
235	0x3d61d32a	0.055133022
236	0xbcc9f8c9	-0.024654763
237	0x3d347775	0.044059236
238	0xbd5f2cd4	-0.05448611
239	0xbd0e2189	-0.03469995
240	0xbbc4f696	-0.0060108406
241	0xbd0ca79a	-0.034339525
242	0x3c905d8f	0.017622737
243	0x3ccb3b66	0.024808597
244	0x3d33fd01	0.043942455
245	0x3d652cca	0.055950917
246	0x3d3523f5	0.044223744
247	0x3acb5f7f	0.0015516131
248	0x3d79d0b5	0.060990054
249	0xbd2a5ab3	-0.041590404
250	0x3d00acd7	0.031414833
251	0x3c9f28ed	0.019428695
252	0x3d66f090	0.056381762
253	0x3d6b2951	0.05741245
254	0xbc280dd6	-0.010257205
255	0xbc1d1f6f	-0.009590014

net.3.linear.weight f4 [256, 256]
0	0x3b683ef6	0.0035437918
1	0x3b43d7fa	0.002988337
2	0x3b68420b	0.0035439755
3	0xbb36d41d	-0.0027897425
4	0x3b7f2bb3	0.003893596
5	0xbbafb57f	-0.005362212
6	0x3b3a6efc	0.00284475
7	0xbad66da7	-0.0016359583
8	0xbb2055ba	-0.002446516
9	0xbad1085d	-0.0015947927
10	0xbab73728	-0.001397823
11	0x3a8227e9	0.0009930107
12	0x3aac85a7	0.001316239
13	0x3aa69df8	0.0012711873
14	0xbb9a3fdc	-0.0047073197
15	0x3b139d4f	0.0022524183
16	0x3ba98deb	0.0051743886
17	0xba751091	-0.0009348477
18	0xbb10e406	-0.0022108569
19	0x3b1fdf2e	0.00243945
20	0xba4a24ae	-0.0007711154
21	0xbb9be6bb	-0.00475773
22	0xbacab40a	-0.0015465033
23	0xbb0d3359	-0.0021545498
24	0x3ba6b28b	0.005087202
25	0xb939c9fc	-0.0001771822
26	0xbb6bd111	-0.0035982768
27	0x3a247627	0.00062737096
28	0x3b7c9f5b	0.0038547132
29	0x3b562e12	0.0032681269
30	0xbb3cb5d4	-0.0028794901
31	0xbb2b676c	-0.0026154174
32	0xb863f85a	-5.4352313e-05
33	0x3880e9b3	6.1470455e-05
34	0x3a98cdb0	0.0011657979
35	0x3b4026a5	0.002931991
36	0x3b452371	0.003008094
37	0xbb0ec070	-0.0021782182
38	0x3b471444	0.003037707
39	0xbb2972e7	-0.002585584
40	0x3b77e3d2	0.0037825
41	0xbb736ce2	-0.0037143757
42	0x3a545f2d	0.00081013405
43	0xbb4f91ff	-0.0031672714
44	0xbb294795	-0.002583002
45	0x3a5bdd48	0.00083871605
46	0xbb0c0ef9	-0.002137123
47	0xba55a0a2	-0.00081492413
48	0x3b396b10	0.0028292574
49	0xbb222be4	-0.00247454
50	0x3b5ef05a	0.0034017772
51	0xbb9f52f6	-0.0048621846
52	0xba9e6931	-0.0012085793
53	0x3a92eb84	0.0011209105
54	0xba5b1ae2	-0.0008358193
55	0xbb641859	-0.0034804551
56	0x3b15e449	0.0022871664
57	0xbb3c3b46	-0.0028721853
58	0x3afb3757	0.0019166273
59	0xbaca723f	-0.0015445425
60	0x3b18bb14	0.0023304867
61	0xbb4b8389	-0.0031053743
62	0x3ba6b081	0.005086959
63	0xba8774af	-0.0010334457
64	0x38e43b37	0.00010882917
65	0x3ae08999	0.0017130851
66	0x3b3efefc	0.0029143682
67	0xbba10500	-0.004913926
68	0xba9bc882	-0.0011885318
69	0xbb583adf	-0.0032994074
70	0x3b69a9cd	0.0035654188
71	0xbb429150	-0.0029688664
72	0x3b531b79	0.003221242
73	0x3a35a813	0.0006929647
74	0xbb9eeec6	-0.0048502414
75	0xbb7b0977	-0.0038305202
76	0xbba653f0	-0.005075924
77	0xba0c66ba	-0.00053558836
78	0x3b90d86c	0.0044203307
79	0x3b9f60a2	0.0048638145
80	0xb9e64915	-0.0004392347
81	0xbb66c3a8	-0.0035211835
82	0x3b2d9fcb	0.002649295
83	0xbb2f126b	-0.0026713859
84	0x3bb0018e	0.005371279
85	0x3b97d49d	0.0046335
86	0x3b130165	0.002243125
87	0x3b8f9c06	0.004382613
88	0xbb88d512	-0.0041757906
89	0xbb364542	-0.0027812277
90	0xbb53bdef	-0.0032309254
91	0x3b3fb8c4	0.0029254416
92	0x3b9dfd0b	0.004821425
93	0xbb593fb9	-0.0033149554
94	0x3b437498	0.0029824134
95	0x3b22c81c	0.0024838513
96	0x3b5567a5	0.0032562998
97	0x3b81ab16	0.0039571626
98	0xbaed607a	-0.0018110417
99	0xba972e04	-0.00115341
100	0xbafde06f	-0.0019369255
101	0x3ac8e303	0.0015326444
102	0x3b72e4e9	0.003706271
103	0x3baaf55d	0.005217238
104	0xbb6a7be0	-0.0035779402
105	0x3a871d8a	0.0010308486
106	0x3875e381	5.862443e-05
107	0xbb07f6ce	-0.0020746472
108	0xbacc4e07	-0.0015587219
109	0x3b95ac70	0.0045676753
110	0x3bae8b49	0.0053266627
111	0xbb39ce99	-0.0028351902
112	0xba9a70f2	-0.0011782928
113	0x3b62abbd	0.0034587227
114	0xbb55f603	-0.0032647855
115	0x3b7a5560	0.003819786
116	0x3b3ceddb	0.0028828296
117	0xb944f658	-0.00018783787
118	0xbabafdca	-0.0014266309
119	0xb8c45336	-9.3615075e-05
120	0xbbcccf90	-0.0062503293
121	0x3b88d90c	0.0041762646
122	0xbb4a3b99	-0.0030858277
123	0xbb77bfb5	-0.0037803475
124	0xbafb91ad	-0.0019193195
125	0xb9e2dc2a	-0.00043270114
126	0xba57f38b	-0.000823789
127	0x3ad5496e	0.0016272494
128	0xbbb0b970	-0.0053931996
129	0x3b0661c3	0.0020505048
130	0xbb482bd1	-0.0030543695
131	0x3b75e9b3	0.0037523329
132	0xbb65f514	-0.0035088705
133	0xbb1c8a1f	-0.0023886038
134	0x38c0e94a	9.198727e-05
135	0xb8465548	-4.7286303e-05
136	0xbb416971	-0.002951231
137	0xbb9849c0	-0.0046474636
138	0x3b7868da	0.0037904293
139	0xbb04d50e	-0.0020268592
140	0x3a7469c6	0.0009323623
141	0x3a71191e	0.0009197163
142	0x3a604802	0.0008555652
143	0x3974388a	0.00023290716
144	0x3b9be0ae	0.0047570085
145	0xbb906008	-0.004405979
146	0xbb631fd8	-0.0034656432
147	0xbba971c3	-0.005171032
148	0x3b125b85	0.0022332382
149	0x3bcd0ef1	0.0062578847
150	0x3a16326c	0.00057295593
151	0x3a8573b3	0.0010181576
152	0x3b07f92e	0.0020747888
153	0xbb246191	-0.0025082568
154	0x3b1a0d82	0.0023506586
155	0x3a549736	0.00081096904
156	0x394a2c94	0.00019280828
157	0x3b6ba364	0.0035955543
158	0xbb9a7754	-0.004713932
159	0x3a545592	0.0008099909
160	0x3b778669	0.0037769324
161	0x3b678a84	0.0035330364
162	0x3a0a13bc	0.0005267223
163	0x3af2a071	0.001851095
164	0xbba39d7d	-0.0049931393
165	0xba3f67f9	-0.0007301565
166	0xbb443d92	-0.0029943925
167	0xba8564a1	-0.0010177084
168	0x3bba89cf	0.0056926976
169	0x3b9da80a	0.0048112916
170	0x3b30741a	0.002692467
171	0xbb451548	-0.00300725
172	0x3b5cc74f	0.0033688133
173	0x39eb1a5b	0.0004484233
174	0xbb23c7e9	-0.0024990982
175	0xba93d8a5	-0.0011279775
176	0xbb87804c	-0.004135167
177	0xbb5faf49	-0.0034131578
178	0x3aef2ce0	0.0018247627
179	0xbb660283	-0.0035096712
180	0xbb438322	-0.00298328
181	0x3ba5ab06	0.005055788
182	0xba8489b7	-0.0010111843
183	0x3b5149e2	0.0031934907
184	0x3a214971	0.0006152606
185	0x3b1a2599	0.0023520945
186	0x3ba87703	0.0051411404
187	0xbb935e73	-0.004497343
188	0x3b4cd926	0.003125736
189	0x3b4bc2f2	0.0031091538
190	0xbb577255	-0.0032874544
191	0x3b82b3a4	0.0039887
192	0x3afe4b0b	0.0019401027
193	0x3adc3c62	0.0016802663
194	0x3abf20fc	0.0014581974
195	0xb9a4ddd6	-0.00031445798
196	0x381096f2	3.4472854e-05
197	0x3ad83a8d	0.0016496942
198	0xbb909ce9	-0.0044132364
199	0x3b6b21f5	0.0035878394
200	0xbb7e98be	-0.0038848366
201	0xba9489b5	-0.0011332544
202	0x3b7eaf03	0.003886164
203	0x3b180514	0.0023196386
204	0xbb183089	-0.0023222289
205	0x3b2ea9e8	0.0026651565
206	0x3b09affb	0.0021009434
207	0x3b326e44	0.0027226368
208	0x3ae6d408	0.0017610798
209	0x3b2fc9a6	0.0026823073
210	0x3b8970b0	0.0041943416
211	0xbac51bf6	-0.001503824
212	0x3b9766ce	0.0046204096
213	0x3b75592f	0.003743719
214	0x3a055788	0.00050865905
215	0xbb8b1fcd	-0.0042457343
216	0x3b813bba	0.0039438875
217	0x3ba87f08	0.0051420964
218	0x3b02390d	0.001987043
219	0xbaffbf46	-0.001951196
220	0xbb6503d6	-0.0034944913
221	0xb9d142fb	-0.0003991349
222	0xbb2cbf6f	-0.002635922
223	0x3bad3caa	0.0052867727
224	0x3b980c6b	0.004640152
225	0xbba64a5a	-0.0050747814
226	0xbb9ae464	-0.0047269333
227	0x3b8bd658	0.004267495
228	0xb952ed7b	-0.00020115629
229	0x3b962843	0.0045824363
230	0xb9ce601f	-0.00039362998
231	0x3b47d9e8	0.0030494872
232	0x3b9f1014	0.0048542116
233	0x3b91634a	0.004436885
234	0xbb78984a	-0.0037932568
235	0x3ae9a4f0	0.0017825644
236	0xbb9c3598	-0.004767131
237	0xb917b291	-0.00014467003
238	0x39acbce4	0.0003294713
239	0xbb789468	-0.0037930254
240	0xbb9d5802	-0.004801751
241	0xbaf92dff	-0.00190109
242	0xbbc313ef	-0.005953304
243	0x39f36fa4	0.0004643175
244	0xbb896afc	-0.0041936617
245	0x3b9639f5	0.0045845457
246	0x3b6c6bc0	0.0036074966
247	0xbb2ad564	-0.0026067132
248	0xbb7d9cd6	-0.0038698218
249	0x3b616f64	0.003439867
250	0x3bbf2a70	0.0058339164
251	0xba007e6b	-0.000490165
252	0x3b81f346	0.003965768
253	0xbb81b7c3	-0.0039586737
254	0xbb1aa8c3	-0.0023599125
255	0xbb4dd985	-0.003141017
